__________________________________________________________________________________________________
Layer (type)                    Output Shape         Param #     Connected to                     
==================================================================================================
input_6 (InputLayer)            (None, 256, 256, 3)  0                                            
__________________________________________________________________________________________________
conv2d_99 (Conv2D)              (None, 127, 127, 32) 864         input_6[0][0]                    
__________________________________________________________________________________________________
batch_normalization_99 (BatchNo (None, 127, 127, 32) 96          conv2d_99[0][0]                  
__________________________________________________________________________________________________
activation_144 (Activation)     (None, 127, 127, 32) 0           batch_normalization_99[0][0]     
__________________________________________________________________________________________________
conv2d_100 (Conv2D)             (None, 125, 125, 32) 9216        activation_144[0][0]             
__________________________________________________________________________________________________
batch_normalization_100 (BatchN (None, 125, 125, 32) 96          conv2d_100[0][0]                 
__________________________________________________________________________________________________
activation_145 (Activation)     (None, 125, 125, 32) 0           batch_normalization_100[0][0]    
__________________________________________________________________________________________________
conv2d_101 (Conv2D)             (None, 125, 125, 64) 18432       activation_145[0][0]             
__________________________________________________________________________________________________
batch_normalization_101 (BatchN (None, 125, 125, 64) 192         conv2d_101[0][0]                 
__________________________________________________________________________________________________
activation_146 (Activation)     (None, 125, 125, 64) 0           batch_normalization_101[0][0]    
__________________________________________________________________________________________________
max_pooling2d_6 (MaxPooling2D)  (None, 62, 62, 64)   0           activation_146[0][0]             
__________________________________________________________________________________________________
conv2d_102 (Conv2D)             (None, 62, 62, 80)   5120        max_pooling2d_6[0][0]            
__________________________________________________________________________________________________
batch_normalization_102 (BatchN (None, 62, 62, 80)   240         conv2d_102[0][0]                 
__________________________________________________________________________________________________
activation_147 (Activation)     (None, 62, 62, 80)   0           batch_normalization_102[0][0]    
__________________________________________________________________________________________________
conv2d_103 (Conv2D)             (None, 60, 60, 192)  138240      activation_147[0][0]             
__________________________________________________________________________________________________
batch_normalization_103 (BatchN (None, 60, 60, 192)  576         conv2d_103[0][0]                 
__________________________________________________________________________________________________
activation_148 (Activation)     (None, 60, 60, 192)  0           batch_normalization_103[0][0]    
__________________________________________________________________________________________________
max_pooling2d_7 (MaxPooling2D)  (None, 29, 29, 192)  0           activation_148[0][0]             
__________________________________________________________________________________________________
conv2d_107 (Conv2D)             (None, 29, 29, 64)   12288       max_pooling2d_7[0][0]            
__________________________________________________________________________________________________
batch_normalization_107 (BatchN (None, 29, 29, 64)   192         conv2d_107[0][0]                 
__________________________________________________________________________________________________
activation_152 (Activation)     (None, 29, 29, 64)   0           batch_normalization_107[0][0]    
__________________________________________________________________________________________________
conv2d_105 (Conv2D)             (None, 29, 29, 48)   9216        max_pooling2d_7[0][0]            
__________________________________________________________________________________________________
conv2d_108 (Conv2D)             (None, 29, 29, 96)   55296       activation_152[0][0]             
__________________________________________________________________________________________________
batch_normalization_105 (BatchN (None, 29, 29, 48)   144         conv2d_105[0][0]                 
__________________________________________________________________________________________________
batch_normalization_108 (BatchN (None, 29, 29, 96)   288         conv2d_108[0][0]                 
__________________________________________________________________________________________________
activation_150 (Activation)     (None, 29, 29, 48)   0           batch_normalization_105[0][0]    
__________________________________________________________________________________________________
activation_153 (Activation)     (None, 29, 29, 96)   0           batch_normalization_108[0][0]    
__________________________________________________________________________________________________
average_pooling2d_10 (AveragePo (None, 29, 29, 192)  0           max_pooling2d_7[0][0]            
__________________________________________________________________________________________________
conv2d_104 (Conv2D)             (None, 29, 29, 96)   18432       max_pooling2d_7[0][0]            
__________________________________________________________________________________________________
conv2d_106 (Conv2D)             (None, 29, 29, 64)   76800       activation_150[0][0]             
__________________________________________________________________________________________________
conv2d_109 (Conv2D)             (None, 29, 29, 96)   82944       activation_153[0][0]             
__________________________________________________________________________________________________
conv2d_110 (Conv2D)             (None, 29, 29, 64)   12288       average_pooling2d_10[0][0]       
__________________________________________________________________________________________________
batch_normalization_104 (BatchN (None, 29, 29, 96)   288         conv2d_104[0][0]                 
__________________________________________________________________________________________________
batch_normalization_106 (BatchN (None, 29, 29, 64)   192         conv2d_106[0][0]                 
__________________________________________________________________________________________________
batch_normalization_109 (BatchN (None, 29, 29, 96)   288         conv2d_109[0][0]                 
__________________________________________________________________________________________________
batch_normalization_110 (BatchN (None, 29, 29, 64)   192         conv2d_110[0][0]                 
__________________________________________________________________________________________________
activation_149 (Activation)     (None, 29, 29, 96)   0           batch_normalization_104[0][0]    
__________________________________________________________________________________________________
activation_151 (Activation)     (None, 29, 29, 64)   0           batch_normalization_106[0][0]    
__________________________________________________________________________________________________
activation_154 (Activation)     (None, 29, 29, 96)   0           batch_normalization_109[0][0]    
__________________________________________________________________________________________________
activation_155 (Activation)     (None, 29, 29, 64)   0           batch_normalization_110[0][0]    
__________________________________________________________________________________________________
mixed_5b (Concatenate)          (None, 29, 29, 320)  0           activation_149[0][0]             
                                                                 activation_151[0][0]             
                                                                 activation_154[0][0]             
                                                                 activation_155[0][0]             
__________________________________________________________________________________________________
conv2d_114 (Conv2D)             (None, 29, 29, 32)   10240       mixed_5b[0][0]                   
__________________________________________________________________________________________________
batch_normalization_114 (BatchN (None, 29, 29, 32)   96          conv2d_114[0][0]                 
__________________________________________________________________________________________________
activation_159 (Activation)     (None, 29, 29, 32)   0           batch_normalization_114[0][0]    
__________________________________________________________________________________________________
conv2d_112 (Conv2D)             (None, 29, 29, 32)   10240       mixed_5b[0][0]                   
__________________________________________________________________________________________________
conv2d_115 (Conv2D)             (None, 29, 29, 48)   13824       activation_159[0][0]             
__________________________________________________________________________________________________
batch_normalization_112 (BatchN (None, 29, 29, 32)   96          conv2d_112[0][0]                 
__________________________________________________________________________________________________
batch_normalization_115 (BatchN (None, 29, 29, 48)   144         conv2d_115[0][0]                 
__________________________________________________________________________________________________
activation_157 (Activation)     (None, 29, 29, 32)   0           batch_normalization_112[0][0]    
__________________________________________________________________________________________________
activation_160 (Activation)     (None, 29, 29, 48)   0           batch_normalization_115[0][0]    
__________________________________________________________________________________________________
conv2d_111 (Conv2D)             (None, 29, 29, 32)   10240       mixed_5b[0][0]                   
__________________________________________________________________________________________________
conv2d_113 (Conv2D)             (None, 29, 29, 32)   9216        activation_157[0][0]             
__________________________________________________________________________________________________
conv2d_116 (Conv2D)             (None, 29, 29, 64)   27648       activation_160[0][0]             
__________________________________________________________________________________________________
batch_normalization_111 (BatchN (None, 29, 29, 32)   96          conv2d_111[0][0]                 
__________________________________________________________________________________________________
batch_normalization_113 (BatchN (None, 29, 29, 32)   96          conv2d_113[0][0]                 
__________________________________________________________________________________________________
batch_normalization_116 (BatchN (None, 29, 29, 64)   192         conv2d_116[0][0]                 
__________________________________________________________________________________________________
activation_156 (Activation)     (None, 29, 29, 32)   0           batch_normalization_111[0][0]    
__________________________________________________________________________________________________
activation_158 (Activation)     (None, 29, 29, 32)   0           batch_normalization_113[0][0]    
__________________________________________________________________________________________________
activation_161 (Activation)     (None, 29, 29, 64)   0           batch_normalization_116[0][0]    
__________________________________________________________________________________________________
block35_1_mixed (Concatenate)   (None, 29, 29, 128)  0           activation_156[0][0]             
                                                                 activation_158[0][0]             
                                                                 activation_161[0][0]             
__________________________________________________________________________________________________
block35_1_conv (Conv2D)         (None, 29, 29, 320)  41280       block35_1_mixed[0][0]            
__________________________________________________________________________________________________
block35_1 (Lambda)              (None, 29, 29, 320)  0           mixed_5b[0][0]                   
                                                                 block35_1_conv[0][0]             
__________________________________________________________________________________________________
block35_1_ac (Activation)       (None, 29, 29, 320)  0           block35_1[0][0]                  
__________________________________________________________________________________________________
conv2d_120 (Conv2D)             (None, 29, 29, 32)   10240       block35_1_ac[0][0]               
__________________________________________________________________________________________________
batch_normalization_120 (BatchN (None, 29, 29, 32)   96          conv2d_120[0][0]                 
__________________________________________________________________________________________________
activation_165 (Activation)     (None, 29, 29, 32)   0           batch_normalization_120[0][0]    
__________________________________________________________________________________________________
conv2d_118 (Conv2D)             (None, 29, 29, 32)   10240       block35_1_ac[0][0]               
__________________________________________________________________________________________________
conv2d_121 (Conv2D)             (None, 29, 29, 48)   13824       activation_165[0][0]             
__________________________________________________________________________________________________
batch_normalization_118 (BatchN (None, 29, 29, 32)   96          conv2d_118[0][0]                 
__________________________________________________________________________________________________
batch_normalization_121 (BatchN (None, 29, 29, 48)   144         conv2d_121[0][0]                 
__________________________________________________________________________________________________
activation_163 (Activation)     (None, 29, 29, 32)   0           batch_normalization_118[0][0]    
__________________________________________________________________________________________________
activation_166 (Activation)     (None, 29, 29, 48)   0           batch_normalization_121[0][0]    
__________________________________________________________________________________________________
conv2d_117 (Conv2D)             (None, 29, 29, 32)   10240       block35_1_ac[0][0]               
__________________________________________________________________________________________________
conv2d_119 (Conv2D)             (None, 29, 29, 32)   9216        activation_163[0][0]             
__________________________________________________________________________________________________
conv2d_122 (Conv2D)             (None, 29, 29, 64)   27648       activation_166[0][0]             
__________________________________________________________________________________________________
batch_normalization_117 (BatchN (None, 29, 29, 32)   96          conv2d_117[0][0]                 
__________________________________________________________________________________________________
batch_normalization_119 (BatchN (None, 29, 29, 32)   96          conv2d_119[0][0]                 
__________________________________________________________________________________________________
batch_normalization_122 (BatchN (None, 29, 29, 64)   192         conv2d_122[0][0]                 
__________________________________________________________________________________________________
activation_162 (Activation)     (None, 29, 29, 32)   0           batch_normalization_117[0][0]    
__________________________________________________________________________________________________
activation_164 (Activation)     (None, 29, 29, 32)   0           batch_normalization_119[0][0]    
__________________________________________________________________________________________________
activation_167 (Activation)     (None, 29, 29, 64)   0           batch_normalization_122[0][0]    
__________________________________________________________________________________________________
block35_2_mixed (Concatenate)   (None, 29, 29, 128)  0           activation_162[0][0]             
                                                                 activation_164[0][0]             
                                                                 activation_167[0][0]             
__________________________________________________________________________________________________
block35_2_conv (Conv2D)         (None, 29, 29, 320)  41280       block35_2_mixed[0][0]            
__________________________________________________________________________________________________
block35_2 (Lambda)              (None, 29, 29, 320)  0           block35_1_ac[0][0]               
                                                                 block35_2_conv[0][0]             
__________________________________________________________________________________________________
block35_2_ac (Activation)       (None, 29, 29, 320)  0           block35_2[0][0]                  
__________________________________________________________________________________________________
conv2d_126 (Conv2D)             (None, 29, 29, 32)   10240       block35_2_ac[0][0]               
__________________________________________________________________________________________________
batch_normalization_126 (BatchN (None, 29, 29, 32)   96          conv2d_126[0][0]                 
__________________________________________________________________________________________________
activation_171 (Activation)     (None, 29, 29, 32)   0           batch_normalization_126[0][0]    
__________________________________________________________________________________________________
conv2d_124 (Conv2D)             (None, 29, 29, 32)   10240       block35_2_ac[0][0]               
__________________________________________________________________________________________________
conv2d_127 (Conv2D)             (None, 29, 29, 48)   13824       activation_171[0][0]             
__________________________________________________________________________________________________
batch_normalization_124 (BatchN (None, 29, 29, 32)   96          conv2d_124[0][0]                 
__________________________________________________________________________________________________
batch_normalization_127 (BatchN (None, 29, 29, 48)   144         conv2d_127[0][0]                 
__________________________________________________________________________________________________
activation_169 (Activation)     (None, 29, 29, 32)   0           batch_normalization_124[0][0]    
__________________________________________________________________________________________________
activation_172 (Activation)     (None, 29, 29, 48)   0           batch_normalization_127[0][0]    
__________________________________________________________________________________________________
conv2d_123 (Conv2D)             (None, 29, 29, 32)   10240       block35_2_ac[0][0]               
__________________________________________________________________________________________________
conv2d_125 (Conv2D)             (None, 29, 29, 32)   9216        activation_169[0][0]             
__________________________________________________________________________________________________
conv2d_128 (Conv2D)             (None, 29, 29, 64)   27648       activation_172[0][0]             
__________________________________________________________________________________________________
batch_normalization_123 (BatchN (None, 29, 29, 32)   96          conv2d_123[0][0]                 
__________________________________________________________________________________________________
batch_normalization_125 (BatchN (None, 29, 29, 32)   96          conv2d_125[0][0]                 
__________________________________________________________________________________________________
batch_normalization_128 (BatchN (None, 29, 29, 64)   192         conv2d_128[0][0]                 
__________________________________________________________________________________________________
activation_168 (Activation)     (None, 29, 29, 32)   0           batch_normalization_123[0][0]    
__________________________________________________________________________________________________
activation_170 (Activation)     (None, 29, 29, 32)   0           batch_normalization_125[0][0]    
__________________________________________________________________________________________________
activation_173 (Activation)     (None, 29, 29, 64)   0           batch_normalization_128[0][0]    
__________________________________________________________________________________________________
block35_3_mixed (Concatenate)   (None, 29, 29, 128)  0           activation_168[0][0]             
                                                                 activation_170[0][0]             
                                                                 activation_173[0][0]             
__________________________________________________________________________________________________
block35_3_conv (Conv2D)         (None, 29, 29, 320)  41280       block35_3_mixed[0][0]            
__________________________________________________________________________________________________
block35_3 (Lambda)              (None, 29, 29, 320)  0           block35_2_ac[0][0]               
                                                                 block35_3_conv[0][0]             
__________________________________________________________________________________________________
block35_3_ac (Activation)       (None, 29, 29, 320)  0           block35_3[0][0]                  
__________________________________________________________________________________________________
conv2d_132 (Conv2D)             (None, 29, 29, 32)   10240       block35_3_ac[0][0]               
__________________________________________________________________________________________________
batch_normalization_132 (BatchN (None, 29, 29, 32)   96          conv2d_132[0][0]                 
__________________________________________________________________________________________________
activation_177 (Activation)     (None, 29, 29, 32)   0           batch_normalization_132[0][0]    
__________________________________________________________________________________________________
conv2d_130 (Conv2D)             (None, 29, 29, 32)   10240       block35_3_ac[0][0]               
__________________________________________________________________________________________________
conv2d_133 (Conv2D)             (None, 29, 29, 48)   13824       activation_177[0][0]             
__________________________________________________________________________________________________
batch_normalization_130 (BatchN (None, 29, 29, 32)   96          conv2d_130[0][0]                 
__________________________________________________________________________________________________
batch_normalization_133 (BatchN (None, 29, 29, 48)   144         conv2d_133[0][0]                 
__________________________________________________________________________________________________
activation_175 (Activation)     (None, 29, 29, 32)   0           batch_normalization_130[0][0]    
__________________________________________________________________________________________________
activation_178 (Activation)     (None, 29, 29, 48)   0           batch_normalization_133[0][0]    
__________________________________________________________________________________________________
conv2d_129 (Conv2D)             (None, 29, 29, 32)   10240       block35_3_ac[0][0]               
__________________________________________________________________________________________________
conv2d_131 (Conv2D)             (None, 29, 29, 32)   9216        activation_175[0][0]             
__________________________________________________________________________________________________
conv2d_134 (Conv2D)             (None, 29, 29, 64)   27648       activation_178[0][0]             
__________________________________________________________________________________________________
batch_normalization_129 (BatchN (None, 29, 29, 32)   96          conv2d_129[0][0]                 
__________________________________________________________________________________________________
batch_normalization_131 (BatchN (None, 29, 29, 32)   96          conv2d_131[0][0]                 
__________________________________________________________________________________________________
batch_normalization_134 (BatchN (None, 29, 29, 64)   192         conv2d_134[0][0]                 
__________________________________________________________________________________________________
activation_174 (Activation)     (None, 29, 29, 32)   0           batch_normalization_129[0][0]    
__________________________________________________________________________________________________
activation_176 (Activation)     (None, 29, 29, 32)   0           batch_normalization_131[0][0]    
__________________________________________________________________________________________________
activation_179 (Activation)     (None, 29, 29, 64)   0           batch_normalization_134[0][0]    
__________________________________________________________________________________________________
block35_4_mixed (Concatenate)   (None, 29, 29, 128)  0           activation_174[0][0]             
                                                                 activation_176[0][0]             
                                                                 activation_179[0][0]             
__________________________________________________________________________________________________
block35_4_conv (Conv2D)         (None, 29, 29, 320)  41280       block35_4_mixed[0][0]            
__________________________________________________________________________________________________
block35_4 (Lambda)              (None, 29, 29, 320)  0           block35_3_ac[0][0]               
                                                                 block35_4_conv[0][0]             
__________________________________________________________________________________________________
block35_4_ac (Activation)       (None, 29, 29, 320)  0           block35_4[0][0]                  
__________________________________________________________________________________________________
conv2d_138 (Conv2D)             (None, 29, 29, 32)   10240       block35_4_ac[0][0]               
__________________________________________________________________________________________________
batch_normalization_138 (BatchN (None, 29, 29, 32)   96          conv2d_138[0][0]                 
__________________________________________________________________________________________________
activation_183 (Activation)     (None, 29, 29, 32)   0           batch_normalization_138[0][0]    
__________________________________________________________________________________________________
conv2d_136 (Conv2D)             (None, 29, 29, 32)   10240       block35_4_ac[0][0]               
__________________________________________________________________________________________________
conv2d_139 (Conv2D)             (None, 29, 29, 48)   13824       activation_183[0][0]             
__________________________________________________________________________________________________
batch_normalization_136 (BatchN (None, 29, 29, 32)   96          conv2d_136[0][0]                 
__________________________________________________________________________________________________
batch_normalization_139 (BatchN (None, 29, 29, 48)   144         conv2d_139[0][0]                 
__________________________________________________________________________________________________
activation_181 (Activation)     (None, 29, 29, 32)   0           batch_normalization_136[0][0]    
__________________________________________________________________________________________________
activation_184 (Activation)     (None, 29, 29, 48)   0           batch_normalization_139[0][0]    
__________________________________________________________________________________________________
conv2d_135 (Conv2D)             (None, 29, 29, 32)   10240       block35_4_ac[0][0]               
__________________________________________________________________________________________________
conv2d_137 (Conv2D)             (None, 29, 29, 32)   9216        activation_181[0][0]             
__________________________________________________________________________________________________
conv2d_140 (Conv2D)             (None, 29, 29, 64)   27648       activation_184[0][0]             
__________________________________________________________________________________________________
batch_normalization_135 (BatchN (None, 29, 29, 32)   96          conv2d_135[0][0]                 
__________________________________________________________________________________________________
batch_normalization_137 (BatchN (None, 29, 29, 32)   96          conv2d_137[0][0]                 
__________________________________________________________________________________________________
batch_normalization_140 (BatchN (None, 29, 29, 64)   192         conv2d_140[0][0]                 
__________________________________________________________________________________________________
activation_180 (Activation)     (None, 29, 29, 32)   0           batch_normalization_135[0][0]    
__________________________________________________________________________________________________
activation_182 (Activation)     (None, 29, 29, 32)   0           batch_normalization_137[0][0]    
__________________________________________________________________________________________________
activation_185 (Activation)     (None, 29, 29, 64)   0           batch_normalization_140[0][0]    
__________________________________________________________________________________________________
block35_5_mixed (Concatenate)   (None, 29, 29, 128)  0           activation_180[0][0]             
                                                                 activation_182[0][0]             
                                                                 activation_185[0][0]             
__________________________________________________________________________________________________
block35_5_conv (Conv2D)         (None, 29, 29, 320)  41280       block35_5_mixed[0][0]            
__________________________________________________________________________________________________
block35_5 (Lambda)              (None, 29, 29, 320)  0           block35_4_ac[0][0]               
                                                                 block35_5_conv[0][0]             
__________________________________________________________________________________________________
block35_5_ac (Activation)       (None, 29, 29, 320)  0           block35_5[0][0]                  
__________________________________________________________________________________________________
conv2d_144 (Conv2D)             (None, 29, 29, 32)   10240       block35_5_ac[0][0]               
__________________________________________________________________________________________________
batch_normalization_144 (BatchN (None, 29, 29, 32)   96          conv2d_144[0][0]                 
__________________________________________________________________________________________________
activation_189 (Activation)     (None, 29, 29, 32)   0           batch_normalization_144[0][0]    
__________________________________________________________________________________________________
conv2d_142 (Conv2D)             (None, 29, 29, 32)   10240       block35_5_ac[0][0]               
__________________________________________________________________________________________________
conv2d_145 (Conv2D)             (None, 29, 29, 48)   13824       activation_189[0][0]             
__________________________________________________________________________________________________
batch_normalization_142 (BatchN (None, 29, 29, 32)   96          conv2d_142[0][0]                 
__________________________________________________________________________________________________
batch_normalization_145 (BatchN (None, 29, 29, 48)   144         conv2d_145[0][0]                 
__________________________________________________________________________________________________
activation_187 (Activation)     (None, 29, 29, 32)   0           batch_normalization_142[0][0]    
__________________________________________________________________________________________________
activation_190 (Activation)     (None, 29, 29, 48)   0           batch_normalization_145[0][0]    
__________________________________________________________________________________________________
conv2d_141 (Conv2D)             (None, 29, 29, 32)   10240       block35_5_ac[0][0]               
__________________________________________________________________________________________________
conv2d_143 (Conv2D)             (None, 29, 29, 32)   9216        activation_187[0][0]             
__________________________________________________________________________________________________
conv2d_146 (Conv2D)             (None, 29, 29, 64)   27648       activation_190[0][0]             
__________________________________________________________________________________________________
batch_normalization_141 (BatchN (None, 29, 29, 32)   96          conv2d_141[0][0]                 
__________________________________________________________________________________________________
batch_normalization_143 (BatchN (None, 29, 29, 32)   96          conv2d_143[0][0]                 
__________________________________________________________________________________________________
batch_normalization_146 (BatchN (None, 29, 29, 64)   192         conv2d_146[0][0]                 
__________________________________________________________________________________________________
activation_186 (Activation)     (None, 29, 29, 32)   0           batch_normalization_141[0][0]    
__________________________________________________________________________________________________
activation_188 (Activation)     (None, 29, 29, 32)   0           batch_normalization_143[0][0]    
__________________________________________________________________________________________________
activation_191 (Activation)     (None, 29, 29, 64)   0           batch_normalization_146[0][0]    
__________________________________________________________________________________________________
block35_6_mixed (Concatenate)   (None, 29, 29, 128)  0           activation_186[0][0]             
                                                                 activation_188[0][0]             
                                                                 activation_191[0][0]             
__________________________________________________________________________________________________
block35_6_conv (Conv2D)         (None, 29, 29, 320)  41280       block35_6_mixed[0][0]            
__________________________________________________________________________________________________
block35_6 (Lambda)              (None, 29, 29, 320)  0           block35_5_ac[0][0]               
                                                                 block35_6_conv[0][0]             
__________________________________________________________________________________________________
block35_6_ac (Activation)       (None, 29, 29, 320)  0           block35_6[0][0]                  
__________________________________________________________________________________________________
conv2d_150 (Conv2D)             (None, 29, 29, 32)   10240       block35_6_ac[0][0]               
__________________________________________________________________________________________________
batch_normalization_150 (BatchN (None, 29, 29, 32)   96          conv2d_150[0][0]                 
__________________________________________________________________________________________________
activation_195 (Activation)     (None, 29, 29, 32)   0           batch_normalization_150[0][0]    
__________________________________________________________________________________________________
conv2d_148 (Conv2D)             (None, 29, 29, 32)   10240       block35_6_ac[0][0]               
__________________________________________________________________________________________________
conv2d_151 (Conv2D)             (None, 29, 29, 48)   13824       activation_195[0][0]             
__________________________________________________________________________________________________
batch_normalization_148 (BatchN (None, 29, 29, 32)   96          conv2d_148[0][0]                 
__________________________________________________________________________________________________
batch_normalization_151 (BatchN (None, 29, 29, 48)   144         conv2d_151[0][0]                 
__________________________________________________________________________________________________
activation_193 (Activation)     (None, 29, 29, 32)   0           batch_normalization_148[0][0]    
__________________________________________________________________________________________________
activation_196 (Activation)     (None, 29, 29, 48)   0           batch_normalization_151[0][0]    
__________________________________________________________________________________________________
conv2d_147 (Conv2D)             (None, 29, 29, 32)   10240       block35_6_ac[0][0]               
__________________________________________________________________________________________________
conv2d_149 (Conv2D)             (None, 29, 29, 32)   9216        activation_193[0][0]             
__________________________________________________________________________________________________
conv2d_152 (Conv2D)             (None, 29, 29, 64)   27648       activation_196[0][0]             
__________________________________________________________________________________________________
batch_normalization_147 (BatchN (None, 29, 29, 32)   96          conv2d_147[0][0]                 
__________________________________________________________________________________________________
batch_normalization_149 (BatchN (None, 29, 29, 32)   96          conv2d_149[0][0]                 
__________________________________________________________________________________________________
batch_normalization_152 (BatchN (None, 29, 29, 64)   192         conv2d_152[0][0]                 
__________________________________________________________________________________________________
activation_192 (Activation)     (None, 29, 29, 32)   0           batch_normalization_147[0][0]    
__________________________________________________________________________________________________
activation_194 (Activation)     (None, 29, 29, 32)   0           batch_normalization_149[0][0]    
__________________________________________________________________________________________________
activation_197 (Activation)     (None, 29, 29, 64)   0           batch_normalization_152[0][0]    
__________________________________________________________________________________________________
block35_7_mixed (Concatenate)   (None, 29, 29, 128)  0           activation_192[0][0]             
                                                                 activation_194[0][0]             
                                                                 activation_197[0][0]             
__________________________________________________________________________________________________
block35_7_conv (Conv2D)         (None, 29, 29, 320)  41280       block35_7_mixed[0][0]            
__________________________________________________________________________________________________
block35_7 (Lambda)              (None, 29, 29, 320)  0           block35_6_ac[0][0]               
                                                                 block35_7_conv[0][0]             
__________________________________________________________________________________________________
block35_7_ac (Activation)       (None, 29, 29, 320)  0           block35_7[0][0]                  
__________________________________________________________________________________________________
conv2d_156 (Conv2D)             (None, 29, 29, 32)   10240       block35_7_ac[0][0]               
__________________________________________________________________________________________________
batch_normalization_156 (BatchN (None, 29, 29, 32)   96          conv2d_156[0][0]                 
__________________________________________________________________________________________________
activation_201 (Activation)     (None, 29, 29, 32)   0           batch_normalization_156[0][0]    
__________________________________________________________________________________________________
conv2d_154 (Conv2D)             (None, 29, 29, 32)   10240       block35_7_ac[0][0]               
__________________________________________________________________________________________________
conv2d_157 (Conv2D)             (None, 29, 29, 48)   13824       activation_201[0][0]             
__________________________________________________________________________________________________
batch_normalization_154 (BatchN (None, 29, 29, 32)   96          conv2d_154[0][0]                 
__________________________________________________________________________________________________
batch_normalization_157 (BatchN (None, 29, 29, 48)   144         conv2d_157[0][0]                 
__________________________________________________________________________________________________
activation_199 (Activation)     (None, 29, 29, 32)   0           batch_normalization_154[0][0]    
__________________________________________________________________________________________________
activation_202 (Activation)     (None, 29, 29, 48)   0           batch_normalization_157[0][0]    
__________________________________________________________________________________________________
conv2d_153 (Conv2D)             (None, 29, 29, 32)   10240       block35_7_ac[0][0]               
__________________________________________________________________________________________________
conv2d_155 (Conv2D)             (None, 29, 29, 32)   9216        activation_199[0][0]             
__________________________________________________________________________________________________
conv2d_158 (Conv2D)             (None, 29, 29, 64)   27648       activation_202[0][0]             
__________________________________________________________________________________________________
batch_normalization_153 (BatchN (None, 29, 29, 32)   96          conv2d_153[0][0]                 
__________________________________________________________________________________________________
batch_normalization_155 (BatchN (None, 29, 29, 32)   96          conv2d_155[0][0]                 
__________________________________________________________________________________________________
batch_normalization_158 (BatchN (None, 29, 29, 64)   192         conv2d_158[0][0]                 
__________________________________________________________________________________________________
activation_198 (Activation)     (None, 29, 29, 32)   0           batch_normalization_153[0][0]    
__________________________________________________________________________________________________
activation_200 (Activation)     (None, 29, 29, 32)   0           batch_normalization_155[0][0]    
__________________________________________________________________________________________________
activation_203 (Activation)     (None, 29, 29, 64)   0           batch_normalization_158[0][0]    
__________________________________________________________________________________________________
block35_8_mixed (Concatenate)   (None, 29, 29, 128)  0           activation_198[0][0]             
                                                                 activation_200[0][0]             
                                                                 activation_203[0][0]             
__________________________________________________________________________________________________
block35_8_conv (Conv2D)         (None, 29, 29, 320)  41280       block35_8_mixed[0][0]            
__________________________________________________________________________________________________
block35_8 (Lambda)              (None, 29, 29, 320)  0           block35_7_ac[0][0]               
                                                                 block35_8_conv[0][0]             
__________________________________________________________________________________________________
block35_8_ac (Activation)       (None, 29, 29, 320)  0           block35_8[0][0]                  
__________________________________________________________________________________________________
conv2d_162 (Conv2D)             (None, 29, 29, 32)   10240       block35_8_ac[0][0]               
__________________________________________________________________________________________________
batch_normalization_162 (BatchN (None, 29, 29, 32)   96          conv2d_162[0][0]                 
__________________________________________________________________________________________________
activation_207 (Activation)     (None, 29, 29, 32)   0           batch_normalization_162[0][0]    
__________________________________________________________________________________________________
conv2d_160 (Conv2D)             (None, 29, 29, 32)   10240       block35_8_ac[0][0]               
__________________________________________________________________________________________________
conv2d_163 (Conv2D)             (None, 29, 29, 48)   13824       activation_207[0][0]             
__________________________________________________________________________________________________
batch_normalization_160 (BatchN (None, 29, 29, 32)   96          conv2d_160[0][0]                 
__________________________________________________________________________________________________
batch_normalization_163 (BatchN (None, 29, 29, 48)   144         conv2d_163[0][0]                 
__________________________________________________________________________________________________
activation_205 (Activation)     (None, 29, 29, 32)   0           batch_normalization_160[0][0]    
__________________________________________________________________________________________________
activation_208 (Activation)     (None, 29, 29, 48)   0           batch_normalization_163[0][0]    
__________________________________________________________________________________________________
conv2d_159 (Conv2D)             (None, 29, 29, 32)   10240       block35_8_ac[0][0]               
__________________________________________________________________________________________________
conv2d_161 (Conv2D)             (None, 29, 29, 32)   9216        activation_205[0][0]             
__________________________________________________________________________________________________
conv2d_164 (Conv2D)             (None, 29, 29, 64)   27648       activation_208[0][0]             
__________________________________________________________________________________________________
batch_normalization_159 (BatchN (None, 29, 29, 32)   96          conv2d_159[0][0]                 
__________________________________________________________________________________________________
batch_normalization_161 (BatchN (None, 29, 29, 32)   96          conv2d_161[0][0]                 
__________________________________________________________________________________________________
batch_normalization_164 (BatchN (None, 29, 29, 64)   192         conv2d_164[0][0]                 
__________________________________________________________________________________________________
activation_204 (Activation)     (None, 29, 29, 32)   0           batch_normalization_159[0][0]    
__________________________________________________________________________________________________
activation_206 (Activation)     (None, 29, 29, 32)   0           batch_normalization_161[0][0]    
__________________________________________________________________________________________________
activation_209 (Activation)     (None, 29, 29, 64)   0           batch_normalization_164[0][0]    
__________________________________________________________________________________________________
block35_9_mixed (Concatenate)   (None, 29, 29, 128)  0           activation_204[0][0]             
                                                                 activation_206[0][0]             
                                                                 activation_209[0][0]             
__________________________________________________________________________________________________
block35_9_conv (Conv2D)         (None, 29, 29, 320)  41280       block35_9_mixed[0][0]            
__________________________________________________________________________________________________
block35_9 (Lambda)              (None, 29, 29, 320)  0           block35_8_ac[0][0]               
                                                                 block35_9_conv[0][0]             
__________________________________________________________________________________________________
block35_9_ac (Activation)       (None, 29, 29, 320)  0           block35_9[0][0]                  
__________________________________________________________________________________________________
conv2d_168 (Conv2D)             (None, 29, 29, 32)   10240       block35_9_ac[0][0]               
__________________________________________________________________________________________________
batch_normalization_168 (BatchN (None, 29, 29, 32)   96          conv2d_168[0][0]                 
__________________________________________________________________________________________________
activation_213 (Activation)     (None, 29, 29, 32)   0           batch_normalization_168[0][0]    
__________________________________________________________________________________________________
conv2d_166 (Conv2D)             (None, 29, 29, 32)   10240       block35_9_ac[0][0]               
__________________________________________________________________________________________________
conv2d_169 (Conv2D)             (None, 29, 29, 48)   13824       activation_213[0][0]             
__________________________________________________________________________________________________
batch_normalization_166 (BatchN (None, 29, 29, 32)   96          conv2d_166[0][0]                 
__________________________________________________________________________________________________
batch_normalization_169 (BatchN (None, 29, 29, 48)   144         conv2d_169[0][0]                 
__________________________________________________________________________________________________
activation_211 (Activation)     (None, 29, 29, 32)   0           batch_normalization_166[0][0]    
__________________________________________________________________________________________________
activation_214 (Activation)     (None, 29, 29, 48)   0           batch_normalization_169[0][0]    
__________________________________________________________________________________________________
conv2d_165 (Conv2D)             (None, 29, 29, 32)   10240       block35_9_ac[0][0]               
__________________________________________________________________________________________________
conv2d_167 (Conv2D)             (None, 29, 29, 32)   9216        activation_211[0][0]             
__________________________________________________________________________________________________
conv2d_170 (Conv2D)             (None, 29, 29, 64)   27648       activation_214[0][0]             
__________________________________________________________________________________________________
batch_normalization_165 (BatchN (None, 29, 29, 32)   96          conv2d_165[0][0]                 
__________________________________________________________________________________________________
batch_normalization_167 (BatchN (None, 29, 29, 32)   96          conv2d_167[0][0]                 
__________________________________________________________________________________________________
batch_normalization_170 (BatchN (None, 29, 29, 64)   192         conv2d_170[0][0]                 
__________________________________________________________________________________________________
activation_210 (Activation)     (None, 29, 29, 32)   0           batch_normalization_165[0][0]    
__________________________________________________________________________________________________
activation_212 (Activation)     (None, 29, 29, 32)   0           batch_normalization_167[0][0]    
__________________________________________________________________________________________________
activation_215 (Activation)     (None, 29, 29, 64)   0           batch_normalization_170[0][0]    
__________________________________________________________________________________________________
block35_10_mixed (Concatenate)  (None, 29, 29, 128)  0           activation_210[0][0]             
                                                                 activation_212[0][0]             
                                                                 activation_215[0][0]             
__________________________________________________________________________________________________
block35_10_conv (Conv2D)        (None, 29, 29, 320)  41280       block35_10_mixed[0][0]           
__________________________________________________________________________________________________
block35_10 (Lambda)             (None, 29, 29, 320)  0           block35_9_ac[0][0]               
                                                                 block35_10_conv[0][0]            
__________________________________________________________________________________________________
block35_10_ac (Activation)      (None, 29, 29, 320)  0           block35_10[0][0]                 
__________________________________________________________________________________________________
conv2d_172 (Conv2D)             (None, 29, 29, 256)  81920       block35_10_ac[0][0]              
__________________________________________________________________________________________________
batch_normalization_172 (BatchN (None, 29, 29, 256)  768         conv2d_172[0][0]                 
__________________________________________________________________________________________________
activation_217 (Activation)     (None, 29, 29, 256)  0           batch_normalization_172[0][0]    
__________________________________________________________________________________________________
conv2d_173 (Conv2D)             (None, 29, 29, 256)  589824      activation_217[0][0]             
__________________________________________________________________________________________________
batch_normalization_173 (BatchN (None, 29, 29, 256)  768         conv2d_173[0][0]                 
__________________________________________________________________________________________________
activation_218 (Activation)     (None, 29, 29, 256)  0           batch_normalization_173[0][0]    
__________________________________________________________________________________________________
conv2d_171 (Conv2D)             (None, 14, 14, 384)  1105920     block35_10_ac[0][0]              
__________________________________________________________________________________________________
conv2d_174 (Conv2D)             (None, 14, 14, 384)  884736      activation_218[0][0]             
__________________________________________________________________________________________________
batch_normalization_171 (BatchN (None, 14, 14, 384)  1152        conv2d_171[0][0]                 
__________________________________________________________________________________________________
batch_normalization_174 (BatchN (None, 14, 14, 384)  1152        conv2d_174[0][0]                 
__________________________________________________________________________________________________
activation_216 (Activation)     (None, 14, 14, 384)  0           batch_normalization_171[0][0]    
__________________________________________________________________________________________________
activation_219 (Activation)     (None, 14, 14, 384)  0           batch_normalization_174[0][0]    
__________________________________________________________________________________________________
max_pooling2d_8 (MaxPooling2D)  (None, 14, 14, 320)  0           block35_10_ac[0][0]              
__________________________________________________________________________________________________
mixed_6a (Concatenate)          (None, 14, 14, 1088) 0           activation_216[0][0]             
                                                                 activation_219[0][0]             
                                                                 max_pooling2d_8[0][0]            
__________________________________________________________________________________________________
conv2d_176 (Conv2D)             (None, 14, 14, 128)  139264      mixed_6a[0][0]                   
__________________________________________________________________________________________________
batch_normalization_176 (BatchN (None, 14, 14, 128)  384         conv2d_176[0][0]                 
__________________________________________________________________________________________________
activation_221 (Activation)     (None, 14, 14, 128)  0           batch_normalization_176[0][0]    
__________________________________________________________________________________________________
conv2d_177 (Conv2D)             (None, 14, 14, 160)  143360      activation_221[0][0]             
__________________________________________________________________________________________________
batch_normalization_177 (BatchN (None, 14, 14, 160)  480         conv2d_177[0][0]                 
__________________________________________________________________________________________________
activation_222 (Activation)     (None, 14, 14, 160)  0           batch_normalization_177[0][0]    
__________________________________________________________________________________________________
conv2d_175 (Conv2D)             (None, 14, 14, 192)  208896      mixed_6a[0][0]                   
__________________________________________________________________________________________________
conv2d_178 (Conv2D)             (None, 14, 14, 192)  215040      activation_222[0][0]             
__________________________________________________________________________________________________
batch_normalization_175 (BatchN (None, 14, 14, 192)  576         conv2d_175[0][0]                 
__________________________________________________________________________________________________
batch_normalization_178 (BatchN (None, 14, 14, 192)  576         conv2d_178[0][0]                 
__________________________________________________________________________________________________
activation_220 (Activation)     (None, 14, 14, 192)  0           batch_normalization_175[0][0]    
__________________________________________________________________________________________________
activation_223 (Activation)     (None, 14, 14, 192)  0           batch_normalization_178[0][0]    
__________________________________________________________________________________________________
block17_1_mixed (Concatenate)   (None, 14, 14, 384)  0           activation_220[0][0]             
                                                                 activation_223[0][0]             
__________________________________________________________________________________________________
block17_1_conv (Conv2D)         (None, 14, 14, 1088) 418880      block17_1_mixed[0][0]            
__________________________________________________________________________________________________
block17_1 (Lambda)              (None, 14, 14, 1088) 0           mixed_6a[0][0]                   
                                                                 block17_1_conv[0][0]             
__________________________________________________________________________________________________
block17_1_ac (Activation)       (None, 14, 14, 1088) 0           block17_1[0][0]                  
__________________________________________________________________________________________________
conv2d_180 (Conv2D)             (None, 14, 14, 128)  139264      block17_1_ac[0][0]               
__________________________________________________________________________________________________
batch_normalization_180 (BatchN (None, 14, 14, 128)  384         conv2d_180[0][0]                 
__________________________________________________________________________________________________
activation_225 (Activation)     (None, 14, 14, 128)  0           batch_normalization_180[0][0]    
__________________________________________________________________________________________________
conv2d_181 (Conv2D)             (None, 14, 14, 160)  143360      activation_225[0][0]             
__________________________________________________________________________________________________
batch_normalization_181 (BatchN (None, 14, 14, 160)  480         conv2d_181[0][0]                 
__________________________________________________________________________________________________
activation_226 (Activation)     (None, 14, 14, 160)  0           batch_normalization_181[0][0]    
__________________________________________________________________________________________________
conv2d_179 (Conv2D)             (None, 14, 14, 192)  208896      block17_1_ac[0][0]               
__________________________________________________________________________________________________
conv2d_182 (Conv2D)             (None, 14, 14, 192)  215040      activation_226[0][0]             
__________________________________________________________________________________________________
batch_normalization_179 (BatchN (None, 14, 14, 192)  576         conv2d_179[0][0]                 
__________________________________________________________________________________________________
batch_normalization_182 (BatchN (None, 14, 14, 192)  576         conv2d_182[0][0]                 
__________________________________________________________________________________________________
activation_224 (Activation)     (None, 14, 14, 192)  0           batch_normalization_179[0][0]    
__________________________________________________________________________________________________
activation_227 (Activation)     (None, 14, 14, 192)  0           batch_normalization_182[0][0]    
__________________________________________________________________________________________________
block17_2_mixed (Concatenate)   (None, 14, 14, 384)  0           activation_224[0][0]             
                                                                 activation_227[0][0]             
__________________________________________________________________________________________________
block17_2_conv (Conv2D)         (None, 14, 14, 1088) 418880      block17_2_mixed[0][0]            
__________________________________________________________________________________________________
block17_2 (Lambda)              (None, 14, 14, 1088) 0           block17_1_ac[0][0]               
                                                                 block17_2_conv[0][0]             
__________________________________________________________________________________________________
block17_2_ac (Activation)       (None, 14, 14, 1088) 0           block17_2[0][0]                  
__________________________________________________________________________________________________
conv2d_184 (Conv2D)             (None, 14, 14, 128)  139264      block17_2_ac[0][0]               
__________________________________________________________________________________________________
batch_normalization_184 (BatchN (None, 14, 14, 128)  384         conv2d_184[0][0]                 
__________________________________________________________________________________________________
activation_229 (Activation)     (None, 14, 14, 128)  0           batch_normalization_184[0][0]    
__________________________________________________________________________________________________
conv2d_185 (Conv2D)             (None, 14, 14, 160)  143360      activation_229[0][0]             
__________________________________________________________________________________________________
batch_normalization_185 (BatchN (None, 14, 14, 160)  480         conv2d_185[0][0]                 
__________________________________________________________________________________________________
activation_230 (Activation)     (None, 14, 14, 160)  0           batch_normalization_185[0][0]    
__________________________________________________________________________________________________
conv2d_183 (Conv2D)             (None, 14, 14, 192)  208896      block17_2_ac[0][0]               
__________________________________________________________________________________________________
conv2d_186 (Conv2D)             (None, 14, 14, 192)  215040      activation_230[0][0]             
__________________________________________________________________________________________________
batch_normalization_183 (BatchN (None, 14, 14, 192)  576         conv2d_183[0][0]                 
__________________________________________________________________________________________________
batch_normalization_186 (BatchN (None, 14, 14, 192)  576         conv2d_186[0][0]                 
__________________________________________________________________________________________________
activation_228 (Activation)     (None, 14, 14, 192)  0           batch_normalization_183[0][0]    
__________________________________________________________________________________________________
activation_231 (Activation)     (None, 14, 14, 192)  0           batch_normalization_186[0][0]    
__________________________________________________________________________________________________
block17_3_mixed (Concatenate)   (None, 14, 14, 384)  0           activation_228[0][0]             
                                                                 activation_231[0][0]             
__________________________________________________________________________________________________
block17_3_conv (Conv2D)         (None, 14, 14, 1088) 418880      block17_3_mixed[0][0]            
__________________________________________________________________________________________________
block17_3 (Lambda)              (None, 14, 14, 1088) 0           block17_2_ac[0][0]               
                                                                 block17_3_conv[0][0]             
__________________________________________________________________________________________________
block17_3_ac (Activation)       (None, 14, 14, 1088) 0           block17_3[0][0]                  
__________________________________________________________________________________________________
conv2d_188 (Conv2D)             (None, 14, 14, 128)  139264      block17_3_ac[0][0]               
__________________________________________________________________________________________________
batch_normalization_188 (BatchN (None, 14, 14, 128)  384         conv2d_188[0][0]                 
__________________________________________________________________________________________________
activation_233 (Activation)     (None, 14, 14, 128)  0           batch_normalization_188[0][0]    
__________________________________________________________________________________________________
conv2d_189 (Conv2D)             (None, 14, 14, 160)  143360      activation_233[0][0]             
__________________________________________________________________________________________________
batch_normalization_189 (BatchN (None, 14, 14, 160)  480         conv2d_189[0][0]                 
__________________________________________________________________________________________________
activation_234 (Activation)     (None, 14, 14, 160)  0           batch_normalization_189[0][0]    
__________________________________________________________________________________________________
conv2d_187 (Conv2D)             (None, 14, 14, 192)  208896      block17_3_ac[0][0]               
__________________________________________________________________________________________________
conv2d_190 (Conv2D)             (None, 14, 14, 192)  215040      activation_234[0][0]             
__________________________________________________________________________________________________
batch_normalization_187 (BatchN (None, 14, 14, 192)  576         conv2d_187[0][0]                 
__________________________________________________________________________________________________
batch_normalization_190 (BatchN (None, 14, 14, 192)  576         conv2d_190[0][0]                 
__________________________________________________________________________________________________
activation_232 (Activation)     (None, 14, 14, 192)  0           batch_normalization_187[0][0]    
__________________________________________________________________________________________________
activation_235 (Activation)     (None, 14, 14, 192)  0           batch_normalization_190[0][0]    
__________________________________________________________________________________________________
block17_4_mixed (Concatenate)   (None, 14, 14, 384)  0           activation_232[0][0]             
                                                                 activation_235[0][0]             
__________________________________________________________________________________________________
block17_4_conv (Conv2D)         (None, 14, 14, 1088) 418880      block17_4_mixed[0][0]            
__________________________________________________________________________________________________
block17_4 (Lambda)              (None, 14, 14, 1088) 0           block17_3_ac[0][0]               
                                                                 block17_4_conv[0][0]             
__________________________________________________________________________________________________
block17_4_ac (Activation)       (None, 14, 14, 1088) 0           block17_4[0][0]                  
__________________________________________________________________________________________________
conv2d_192 (Conv2D)             (None, 14, 14, 128)  139264      block17_4_ac[0][0]               
__________________________________________________________________________________________________
batch_normalization_192 (BatchN (None, 14, 14, 128)  384         conv2d_192[0][0]                 
__________________________________________________________________________________________________
activation_237 (Activation)     (None, 14, 14, 128)  0           batch_normalization_192[0][0]    
__________________________________________________________________________________________________
conv2d_193 (Conv2D)             (None, 14, 14, 160)  143360      activation_237[0][0]             
__________________________________________________________________________________________________
batch_normalization_193 (BatchN (None, 14, 14, 160)  480         conv2d_193[0][0]                 
__________________________________________________________________________________________________
activation_238 (Activation)     (None, 14, 14, 160)  0           batch_normalization_193[0][0]    
__________________________________________________________________________________________________
conv2d_191 (Conv2D)             (None, 14, 14, 192)  208896      block17_4_ac[0][0]               
__________________________________________________________________________________________________
conv2d_194 (Conv2D)             (None, 14, 14, 192)  215040      activation_238[0][0]             
__________________________________________________________________________________________________
batch_normalization_191 (BatchN (None, 14, 14, 192)  576         conv2d_191[0][0]                 
__________________________________________________________________________________________________
batch_normalization_194 (BatchN (None, 14, 14, 192)  576         conv2d_194[0][0]                 
__________________________________________________________________________________________________
activation_236 (Activation)     (None, 14, 14, 192)  0           batch_normalization_191[0][0]    
__________________________________________________________________________________________________
activation_239 (Activation)     (None, 14, 14, 192)  0           batch_normalization_194[0][0]    
__________________________________________________________________________________________________
block17_5_mixed (Concatenate)   (None, 14, 14, 384)  0           activation_236[0][0]             
                                                                 activation_239[0][0]             
__________________________________________________________________________________________________
block17_5_conv (Conv2D)         (None, 14, 14, 1088) 418880      block17_5_mixed[0][0]            
__________________________________________________________________________________________________
block17_5 (Lambda)              (None, 14, 14, 1088) 0           block17_4_ac[0][0]               
                                                                 block17_5_conv[0][0]             
__________________________________________________________________________________________________
block17_5_ac (Activation)       (None, 14, 14, 1088) 0           block17_5[0][0]                  
__________________________________________________________________________________________________
conv2d_196 (Conv2D)             (None, 14, 14, 128)  139264      block17_5_ac[0][0]               
__________________________________________________________________________________________________
batch_normalization_196 (BatchN (None, 14, 14, 128)  384         conv2d_196[0][0]                 
__________________________________________________________________________________________________
activation_241 (Activation)     (None, 14, 14, 128)  0           batch_normalization_196[0][0]    
__________________________________________________________________________________________________
conv2d_197 (Conv2D)             (None, 14, 14, 160)  143360      activation_241[0][0]             
__________________________________________________________________________________________________
batch_normalization_197 (BatchN (None, 14, 14, 160)  480         conv2d_197[0][0]                 
__________________________________________________________________________________________________
activation_242 (Activation)     (None, 14, 14, 160)  0           batch_normalization_197[0][0]    
__________________________________________________________________________________________________
conv2d_195 (Conv2D)             (None, 14, 14, 192)  208896      block17_5_ac[0][0]               
__________________________________________________________________________________________________
conv2d_198 (Conv2D)             (None, 14, 14, 192)  215040      activation_242[0][0]             
__________________________________________________________________________________________________
batch_normalization_195 (BatchN (None, 14, 14, 192)  576         conv2d_195[0][0]                 
__________________________________________________________________________________________________
batch_normalization_198 (BatchN (None, 14, 14, 192)  576         conv2d_198[0][0]                 
__________________________________________________________________________________________________
activation_240 (Activation)     (None, 14, 14, 192)  0           batch_normalization_195[0][0]    
__________________________________________________________________________________________________
activation_243 (Activation)     (None, 14, 14, 192)  0           batch_normalization_198[0][0]    
__________________________________________________________________________________________________
block17_6_mixed (Concatenate)   (None, 14, 14, 384)  0           activation_240[0][0]             
                                                                 activation_243[0][0]             
__________________________________________________________________________________________________
block17_6_conv (Conv2D)         (None, 14, 14, 1088) 418880      block17_6_mixed[0][0]            
__________________________________________________________________________________________________
block17_6 (Lambda)              (None, 14, 14, 1088) 0           block17_5_ac[0][0]               
                                                                 block17_6_conv[0][0]             
__________________________________________________________________________________________________
block17_6_ac (Activation)       (None, 14, 14, 1088) 0           block17_6[0][0]                  
__________________________________________________________________________________________________
conv2d_200 (Conv2D)             (None, 14, 14, 128)  139264      block17_6_ac[0][0]               
__________________________________________________________________________________________________
batch_normalization_200 (BatchN (None, 14, 14, 128)  384         conv2d_200[0][0]                 
__________________________________________________________________________________________________
activation_245 (Activation)     (None, 14, 14, 128)  0           batch_normalization_200[0][0]    
__________________________________________________________________________________________________
conv2d_201 (Conv2D)             (None, 14, 14, 160)  143360      activation_245[0][0]             
__________________________________________________________________________________________________
batch_normalization_201 (BatchN (None, 14, 14, 160)  480         conv2d_201[0][0]                 
__________________________________________________________________________________________________
activation_246 (Activation)     (None, 14, 14, 160)  0           batch_normalization_201[0][0]    
__________________________________________________________________________________________________
conv2d_199 (Conv2D)             (None, 14, 14, 192)  208896      block17_6_ac[0][0]               
__________________________________________________________________________________________________
conv2d_202 (Conv2D)             (None, 14, 14, 192)  215040      activation_246[0][0]             
__________________________________________________________________________________________________
batch_normalization_199 (BatchN (None, 14, 14, 192)  576         conv2d_199[0][0]                 
__________________________________________________________________________________________________
batch_normalization_202 (BatchN (None, 14, 14, 192)  576         conv2d_202[0][0]                 
__________________________________________________________________________________________________
activation_244 (Activation)     (None, 14, 14, 192)  0           batch_normalization_199[0][0]    
__________________________________________________________________________________________________
activation_247 (Activation)     (None, 14, 14, 192)  0           batch_normalization_202[0][0]    
__________________________________________________________________________________________________
block17_7_mixed (Concatenate)   (None, 14, 14, 384)  0           activation_244[0][0]             
                                                                 activation_247[0][0]             
__________________________________________________________________________________________________
block17_7_conv (Conv2D)         (None, 14, 14, 1088) 418880      block17_7_mixed[0][0]            
__________________________________________________________________________________________________
block17_7 (Lambda)              (None, 14, 14, 1088) 0           block17_6_ac[0][0]               
                                                                 block17_7_conv[0][0]             
__________________________________________________________________________________________________
block17_7_ac (Activation)       (None, 14, 14, 1088) 0           block17_7[0][0]                  
__________________________________________________________________________________________________
conv2d_204 (Conv2D)             (None, 14, 14, 128)  139264      block17_7_ac[0][0]               
__________________________________________________________________________________________________
batch_normalization_204 (BatchN (None, 14, 14, 128)  384         conv2d_204[0][0]                 
__________________________________________________________________________________________________
activation_249 (Activation)     (None, 14, 14, 128)  0           batch_normalization_204[0][0]    
__________________________________________________________________________________________________
conv2d_205 (Conv2D)             (None, 14, 14, 160)  143360      activation_249[0][0]             
__________________________________________________________________________________________________
batch_normalization_205 (BatchN (None, 14, 14, 160)  480         conv2d_205[0][0]                 
__________________________________________________________________________________________________
activation_250 (Activation)     (None, 14, 14, 160)  0           batch_normalization_205[0][0]    
__________________________________________________________________________________________________
conv2d_203 (Conv2D)             (None, 14, 14, 192)  208896      block17_7_ac[0][0]               
__________________________________________________________________________________________________
conv2d_206 (Conv2D)             (None, 14, 14, 192)  215040      activation_250[0][0]             
__________________________________________________________________________________________________
batch_normalization_203 (BatchN (None, 14, 14, 192)  576         conv2d_203[0][0]                 
__________________________________________________________________________________________________
batch_normalization_206 (BatchN (None, 14, 14, 192)  576         conv2d_206[0][0]                 
__________________________________________________________________________________________________
activation_248 (Activation)     (None, 14, 14, 192)  0           batch_normalization_203[0][0]    
__________________________________________________________________________________________________
activation_251 (Activation)     (None, 14, 14, 192)  0           batch_normalization_206[0][0]    
__________________________________________________________________________________________________
block17_8_mixed (Concatenate)   (None, 14, 14, 384)  0           activation_248[0][0]             
                                                                 activation_251[0][0]             
__________________________________________________________________________________________________
block17_8_conv (Conv2D)         (None, 14, 14, 1088) 418880      block17_8_mixed[0][0]            
__________________________________________________________________________________________________
block17_8 (Lambda)              (None, 14, 14, 1088) 0           block17_7_ac[0][0]               
                                                                 block17_8_conv[0][0]             
__________________________________________________________________________________________________
block17_8_ac (Activation)       (None, 14, 14, 1088) 0           block17_8[0][0]                  
__________________________________________________________________________________________________
conv2d_208 (Conv2D)             (None, 14, 14, 128)  139264      block17_8_ac[0][0]               
__________________________________________________________________________________________________
batch_normalization_208 (BatchN (None, 14, 14, 128)  384         conv2d_208[0][0]                 
__________________________________________________________________________________________________
activation_253 (Activation)     (None, 14, 14, 128)  0           batch_normalization_208[0][0]    
__________________________________________________________________________________________________
conv2d_209 (Conv2D)             (None, 14, 14, 160)  143360      activation_253[0][0]             
__________________________________________________________________________________________________
batch_normalization_209 (BatchN (None, 14, 14, 160)  480         conv2d_209[0][0]                 
__________________________________________________________________________________________________
activation_254 (Activation)     (None, 14, 14, 160)  0           batch_normalization_209[0][0]    
__________________________________________________________________________________________________
conv2d_207 (Conv2D)             (None, 14, 14, 192)  208896      block17_8_ac[0][0]               
__________________________________________________________________________________________________
conv2d_210 (Conv2D)             (None, 14, 14, 192)  215040      activation_254[0][0]             
__________________________________________________________________________________________________
batch_normalization_207 (BatchN (None, 14, 14, 192)  576         conv2d_207[0][0]                 
__________________________________________________________________________________________________
batch_normalization_210 (BatchN (None, 14, 14, 192)  576         conv2d_210[0][0]                 
__________________________________________________________________________________________________
activation_252 (Activation)     (None, 14, 14, 192)  0           batch_normalization_207[0][0]    
__________________________________________________________________________________________________
activation_255 (Activation)     (None, 14, 14, 192)  0           batch_normalization_210[0][0]    
__________________________________________________________________________________________________
block17_9_mixed (Concatenate)   (None, 14, 14, 384)  0           activation_252[0][0]             
                                                                 activation_255[0][0]             
__________________________________________________________________________________________________
block17_9_conv (Conv2D)         (None, 14, 14, 1088) 418880      block17_9_mixed[0][0]            
__________________________________________________________________________________________________
block17_9 (Lambda)              (None, 14, 14, 1088) 0           block17_8_ac[0][0]               
                                                                 block17_9_conv[0][0]             
__________________________________________________________________________________________________
block17_9_ac (Activation)       (None, 14, 14, 1088) 0           block17_9[0][0]                  
__________________________________________________________________________________________________
conv2d_212 (Conv2D)             (None, 14, 14, 128)  139264      block17_9_ac[0][0]               
__________________________________________________________________________________________________
batch_normalization_212 (BatchN (None, 14, 14, 128)  384         conv2d_212[0][0]                 
__________________________________________________________________________________________________
activation_257 (Activation)     (None, 14, 14, 128)  0           batch_normalization_212[0][0]    
__________________________________________________________________________________________________
conv2d_213 (Conv2D)             (None, 14, 14, 160)  143360      activation_257[0][0]             
__________________________________________________________________________________________________
batch_normalization_213 (BatchN (None, 14, 14, 160)  480         conv2d_213[0][0]                 
__________________________________________________________________________________________________
activation_258 (Activation)     (None, 14, 14, 160)  0           batch_normalization_213[0][0]    
__________________________________________________________________________________________________
conv2d_211 (Conv2D)             (None, 14, 14, 192)  208896      block17_9_ac[0][0]               
__________________________________________________________________________________________________
conv2d_214 (Conv2D)             (None, 14, 14, 192)  215040      activation_258[0][0]             
__________________________________________________________________________________________________
batch_normalization_211 (BatchN (None, 14, 14, 192)  576         conv2d_211[0][0]                 
__________________________________________________________________________________________________
batch_normalization_214 (BatchN (None, 14, 14, 192)  576         conv2d_214[0][0]                 
__________________________________________________________________________________________________
activation_256 (Activation)     (None, 14, 14, 192)  0           batch_normalization_211[0][0]    
__________________________________________________________________________________________________
activation_259 (Activation)     (None, 14, 14, 192)  0           batch_normalization_214[0][0]    
__________________________________________________________________________________________________
block17_10_mixed (Concatenate)  (None, 14, 14, 384)  0           activation_256[0][0]             
                                                                 activation_259[0][0]             
__________________________________________________________________________________________________
block17_10_conv (Conv2D)        (None, 14, 14, 1088) 418880      block17_10_mixed[0][0]           
__________________________________________________________________________________________________
block17_10 (Lambda)             (None, 14, 14, 1088) 0           block17_9_ac[0][0]               
                                                                 block17_10_conv[0][0]            
__________________________________________________________________________________________________
block17_10_ac (Activation)      (None, 14, 14, 1088) 0           block17_10[0][0]                 
__________________________________________________________________________________________________
conv2d_216 (Conv2D)             (None, 14, 14, 128)  139264      block17_10_ac[0][0]              
__________________________________________________________________________________________________
batch_normalization_216 (BatchN (None, 14, 14, 128)  384         conv2d_216[0][0]                 
__________________________________________________________________________________________________
activation_261 (Activation)     (None, 14, 14, 128)  0           batch_normalization_216[0][0]    
__________________________________________________________________________________________________
conv2d_217 (Conv2D)             (None, 14, 14, 160)  143360      activation_261[0][0]             
__________________________________________________________________________________________________
batch_normalization_217 (BatchN (None, 14, 14, 160)  480         conv2d_217[0][0]                 
__________________________________________________________________________________________________
activation_262 (Activation)     (None, 14, 14, 160)  0           batch_normalization_217[0][0]    
__________________________________________________________________________________________________
conv2d_215 (Conv2D)             (None, 14, 14, 192)  208896      block17_10_ac[0][0]              
__________________________________________________________________________________________________
conv2d_218 (Conv2D)             (None, 14, 14, 192)  215040      activation_262[0][0]             
__________________________________________________________________________________________________
batch_normalization_215 (BatchN (None, 14, 14, 192)  576         conv2d_215[0][0]                 
__________________________________________________________________________________________________
batch_normalization_218 (BatchN (None, 14, 14, 192)  576         conv2d_218[0][0]                 
__________________________________________________________________________________________________
activation_260 (Activation)     (None, 14, 14, 192)  0           batch_normalization_215[0][0]    
__________________________________________________________________________________________________
activation_263 (Activation)     (None, 14, 14, 192)  0           batch_normalization_218[0][0]    
__________________________________________________________________________________________________
block17_11_mixed (Concatenate)  (None, 14, 14, 384)  0           activation_260[0][0]             
                                                                 activation_263[0][0]             
__________________________________________________________________________________________________
block17_11_conv (Conv2D)        (None, 14, 14, 1088) 418880      block17_11_mixed[0][0]           
__________________________________________________________________________________________________
block17_11 (Lambda)             (None, 14, 14, 1088) 0           block17_10_ac[0][0]              
                                                                 block17_11_conv[0][0]            
__________________________________________________________________________________________________
block17_11_ac (Activation)      (None, 14, 14, 1088) 0           block17_11[0][0]                 
__________________________________________________________________________________________________
conv2d_220 (Conv2D)             (None, 14, 14, 128)  139264      block17_11_ac[0][0]              
__________________________________________________________________________________________________
batch_normalization_220 (BatchN (None, 14, 14, 128)  384         conv2d_220[0][0]                 
__________________________________________________________________________________________________
activation_265 (Activation)     (None, 14, 14, 128)  0           batch_normalization_220[0][0]    
__________________________________________________________________________________________________
conv2d_221 (Conv2D)             (None, 14, 14, 160)  143360      activation_265[0][0]             
__________________________________________________________________________________________________
batch_normalization_221 (BatchN (None, 14, 14, 160)  480         conv2d_221[0][0]                 
__________________________________________________________________________________________________
activation_266 (Activation)     (None, 14, 14, 160)  0           batch_normalization_221[0][0]    
__________________________________________________________________________________________________
conv2d_219 (Conv2D)             (None, 14, 14, 192)  208896      block17_11_ac[0][0]              
__________________________________________________________________________________________________
conv2d_222 (Conv2D)             (None, 14, 14, 192)  215040      activation_266[0][0]             
__________________________________________________________________________________________________
batch_normalization_219 (BatchN (None, 14, 14, 192)  576         conv2d_219[0][0]                 
__________________________________________________________________________________________________
batch_normalization_222 (BatchN (None, 14, 14, 192)  576         conv2d_222[0][0]                 
__________________________________________________________________________________________________
activation_264 (Activation)     (None, 14, 14, 192)  0           batch_normalization_219[0][0]    
__________________________________________________________________________________________________
activation_267 (Activation)     (None, 14, 14, 192)  0           batch_normalization_222[0][0]    
__________________________________________________________________________________________________
block17_12_mixed (Concatenate)  (None, 14, 14, 384)  0           activation_264[0][0]             
                                                                 activation_267[0][0]             
__________________________________________________________________________________________________
block17_12_conv (Conv2D)        (None, 14, 14, 1088) 418880      block17_12_mixed[0][0]           
__________________________________________________________________________________________________
block17_12 (Lambda)             (None, 14, 14, 1088) 0           block17_11_ac[0][0]              
                                                                 block17_12_conv[0][0]            
__________________________________________________________________________________________________
block17_12_ac (Activation)      (None, 14, 14, 1088) 0           block17_12[0][0]                 
__________________________________________________________________________________________________
conv2d_224 (Conv2D)             (None, 14, 14, 128)  139264      block17_12_ac[0][0]              
__________________________________________________________________________________________________
batch_normalization_224 (BatchN (None, 14, 14, 128)  384         conv2d_224[0][0]                 
__________________________________________________________________________________________________
activation_269 (Activation)     (None, 14, 14, 128)  0           batch_normalization_224[0][0]    
__________________________________________________________________________________________________
conv2d_225 (Conv2D)             (None, 14, 14, 160)  143360      activation_269[0][0]             
__________________________________________________________________________________________________
batch_normalization_225 (BatchN (None, 14, 14, 160)  480         conv2d_225[0][0]                 
__________________________________________________________________________________________________
activation_270 (Activation)     (None, 14, 14, 160)  0           batch_normalization_225[0][0]    
__________________________________________________________________________________________________
conv2d_223 (Conv2D)             (None, 14, 14, 192)  208896      block17_12_ac[0][0]              
__________________________________________________________________________________________________
conv2d_226 (Conv2D)             (None, 14, 14, 192)  215040      activation_270[0][0]             
__________________________________________________________________________________________________
batch_normalization_223 (BatchN (None, 14, 14, 192)  576         conv2d_223[0][0]                 
__________________________________________________________________________________________________
batch_normalization_226 (BatchN (None, 14, 14, 192)  576         conv2d_226[0][0]                 
__________________________________________________________________________________________________
activation_268 (Activation)     (None, 14, 14, 192)  0           batch_normalization_223[0][0]    
__________________________________________________________________________________________________
activation_271 (Activation)     (None, 14, 14, 192)  0           batch_normalization_226[0][0]    
__________________________________________________________________________________________________
block17_13_mixed (Concatenate)  (None, 14, 14, 384)  0           activation_268[0][0]             
                                                                 activation_271[0][0]             
__________________________________________________________________________________________________
block17_13_conv (Conv2D)        (None, 14, 14, 1088) 418880      block17_13_mixed[0][0]           
__________________________________________________________________________________________________
block17_13 (Lambda)             (None, 14, 14, 1088) 0           block17_12_ac[0][0]              
                                                                 block17_13_conv[0][0]            
__________________________________________________________________________________________________
block17_13_ac (Activation)      (None, 14, 14, 1088) 0           block17_13[0][0]                 
__________________________________________________________________________________________________
conv2d_228 (Conv2D)             (None, 14, 14, 128)  139264      block17_13_ac[0][0]              
__________________________________________________________________________________________________
batch_normalization_228 (BatchN (None, 14, 14, 128)  384         conv2d_228[0][0]                 
__________________________________________________________________________________________________
activation_273 (Activation)     (None, 14, 14, 128)  0           batch_normalization_228[0][0]    
__________________________________________________________________________________________________
conv2d_229 (Conv2D)             (None, 14, 14, 160)  143360      activation_273[0][0]             
__________________________________________________________________________________________________
batch_normalization_229 (BatchN (None, 14, 14, 160)  480         conv2d_229[0][0]                 
__________________________________________________________________________________________________
activation_274 (Activation)     (None, 14, 14, 160)  0           batch_normalization_229[0][0]    
__________________________________________________________________________________________________
conv2d_227 (Conv2D)             (None, 14, 14, 192)  208896      block17_13_ac[0][0]              
__________________________________________________________________________________________________
conv2d_230 (Conv2D)             (None, 14, 14, 192)  215040      activation_274[0][0]             
__________________________________________________________________________________________________
batch_normalization_227 (BatchN (None, 14, 14, 192)  576         conv2d_227[0][0]                 
__________________________________________________________________________________________________
batch_normalization_230 (BatchN (None, 14, 14, 192)  576         conv2d_230[0][0]                 
__________________________________________________________________________________________________
activation_272 (Activation)     (None, 14, 14, 192)  0           batch_normalization_227[0][0]    
__________________________________________________________________________________________________
activation_275 (Activation)     (None, 14, 14, 192)  0           batch_normalization_230[0][0]    
__________________________________________________________________________________________________
block17_14_mixed (Concatenate)  (None, 14, 14, 384)  0           activation_272[0][0]             
                                                                 activation_275[0][0]             
__________________________________________________________________________________________________
block17_14_conv (Conv2D)        (None, 14, 14, 1088) 418880      block17_14_mixed[0][0]           
__________________________________________________________________________________________________
block17_14 (Lambda)             (None, 14, 14, 1088) 0           block17_13_ac[0][0]              
                                                                 block17_14_conv[0][0]            
__________________________________________________________________________________________________
block17_14_ac (Activation)      (None, 14, 14, 1088) 0           block17_14[0][0]                 
__________________________________________________________________________________________________
conv2d_232 (Conv2D)             (None, 14, 14, 128)  139264      block17_14_ac[0][0]              
__________________________________________________________________________________________________
batch_normalization_232 (BatchN (None, 14, 14, 128)  384         conv2d_232[0][0]                 
__________________________________________________________________________________________________
activation_277 (Activation)     (None, 14, 14, 128)  0           batch_normalization_232[0][0]    
__________________________________________________________________________________________________
conv2d_233 (Conv2D)             (None, 14, 14, 160)  143360      activation_277[0][0]             
__________________________________________________________________________________________________
batch_normalization_233 (BatchN (None, 14, 14, 160)  480         conv2d_233[0][0]                 
__________________________________________________________________________________________________
activation_278 (Activation)     (None, 14, 14, 160)  0           batch_normalization_233[0][0]    
__________________________________________________________________________________________________
conv2d_231 (Conv2D)             (None, 14, 14, 192)  208896      block17_14_ac[0][0]              
__________________________________________________________________________________________________
conv2d_234 (Conv2D)             (None, 14, 14, 192)  215040      activation_278[0][0]             
__________________________________________________________________________________________________
batch_normalization_231 (BatchN (None, 14, 14, 192)  576         conv2d_231[0][0]                 
__________________________________________________________________________________________________
batch_normalization_234 (BatchN (None, 14, 14, 192)  576         conv2d_234[0][0]                 
__________________________________________________________________________________________________
activation_276 (Activation)     (None, 14, 14, 192)  0           batch_normalization_231[0][0]    
__________________________________________________________________________________________________
activation_279 (Activation)     (None, 14, 14, 192)  0           batch_normalization_234[0][0]    
__________________________________________________________________________________________________
block17_15_mixed (Concatenate)  (None, 14, 14, 384)  0           activation_276[0][0]             
                                                                 activation_279[0][0]             
__________________________________________________________________________________________________
block17_15_conv (Conv2D)        (None, 14, 14, 1088) 418880      block17_15_mixed[0][0]           
__________________________________________________________________________________________________
block17_15 (Lambda)             (None, 14, 14, 1088) 0           block17_14_ac[0][0]              
                                                                 block17_15_conv[0][0]            
__________________________________________________________________________________________________
block17_15_ac (Activation)      (None, 14, 14, 1088) 0           block17_15[0][0]                 
__________________________________________________________________________________________________
conv2d_236 (Conv2D)             (None, 14, 14, 128)  139264      block17_15_ac[0][0]              
__________________________________________________________________________________________________
batch_normalization_236 (BatchN (None, 14, 14, 128)  384         conv2d_236[0][0]                 
__________________________________________________________________________________________________
activation_281 (Activation)     (None, 14, 14, 128)  0           batch_normalization_236[0][0]    
__________________________________________________________________________________________________
conv2d_237 (Conv2D)             (None, 14, 14, 160)  143360      activation_281[0][0]             
__________________________________________________________________________________________________
batch_normalization_237 (BatchN (None, 14, 14, 160)  480         conv2d_237[0][0]                 
__________________________________________________________________________________________________
activation_282 (Activation)     (None, 14, 14, 160)  0           batch_normalization_237[0][0]    
__________________________________________________________________________________________________
conv2d_235 (Conv2D)             (None, 14, 14, 192)  208896      block17_15_ac[0][0]              
__________________________________________________________________________________________________
conv2d_238 (Conv2D)             (None, 14, 14, 192)  215040      activation_282[0][0]             
__________________________________________________________________________________________________
batch_normalization_235 (BatchN (None, 14, 14, 192)  576         conv2d_235[0][0]                 
__________________________________________________________________________________________________
batch_normalization_238 (BatchN (None, 14, 14, 192)  576         conv2d_238[0][0]                 
__________________________________________________________________________________________________
activation_280 (Activation)     (None, 14, 14, 192)  0           batch_normalization_235[0][0]    
__________________________________________________________________________________________________
activation_283 (Activation)     (None, 14, 14, 192)  0           batch_normalization_238[0][0]    
__________________________________________________________________________________________________
block17_16_mixed (Concatenate)  (None, 14, 14, 384)  0           activation_280[0][0]             
                                                                 activation_283[0][0]             
__________________________________________________________________________________________________
block17_16_conv (Conv2D)        (None, 14, 14, 1088) 418880      block17_16_mixed[0][0]           
__________________________________________________________________________________________________
block17_16 (Lambda)             (None, 14, 14, 1088) 0           block17_15_ac[0][0]              
                                                                 block17_16_conv[0][0]            
__________________________________________________________________________________________________
block17_16_ac (Activation)      (None, 14, 14, 1088) 0           block17_16[0][0]                 
__________________________________________________________________________________________________
conv2d_240 (Conv2D)             (None, 14, 14, 128)  139264      block17_16_ac[0][0]              
__________________________________________________________________________________________________
batch_normalization_240 (BatchN (None, 14, 14, 128)  384         conv2d_240[0][0]                 
__________________________________________________________________________________________________
activation_285 (Activation)     (None, 14, 14, 128)  0           batch_normalization_240[0][0]    
__________________________________________________________________________________________________
conv2d_241 (Conv2D)             (None, 14, 14, 160)  143360      activation_285[0][0]             
__________________________________________________________________________________________________
batch_normalization_241 (BatchN (None, 14, 14, 160)  480         conv2d_241[0][0]                 
__________________________________________________________________________________________________
activation_286 (Activation)     (None, 14, 14, 160)  0           batch_normalization_241[0][0]    
__________________________________________________________________________________________________
conv2d_239 (Conv2D)             (None, 14, 14, 192)  208896      block17_16_ac[0][0]              
__________________________________________________________________________________________________
conv2d_242 (Conv2D)             (None, 14, 14, 192)  215040      activation_286[0][0]             
__________________________________________________________________________________________________
batch_normalization_239 (BatchN (None, 14, 14, 192)  576         conv2d_239[0][0]                 
__________________________________________________________________________________________________
batch_normalization_242 (BatchN (None, 14, 14, 192)  576         conv2d_242[0][0]                 
__________________________________________________________________________________________________
activation_284 (Activation)     (None, 14, 14, 192)  0           batch_normalization_239[0][0]    
__________________________________________________________________________________________________
activation_287 (Activation)     (None, 14, 14, 192)  0           batch_normalization_242[0][0]    
__________________________________________________________________________________________________
block17_17_mixed (Concatenate)  (None, 14, 14, 384)  0           activation_284[0][0]             
                                                                 activation_287[0][0]             
__________________________________________________________________________________________________
block17_17_conv (Conv2D)        (None, 14, 14, 1088) 418880      block17_17_mixed[0][0]           
__________________________________________________________________________________________________
block17_17 (Lambda)             (None, 14, 14, 1088) 0           block17_16_ac[0][0]              
                                                                 block17_17_conv[0][0]            
__________________________________________________________________________________________________
block17_17_ac (Activation)      (None, 14, 14, 1088) 0           block17_17[0][0]                 
__________________________________________________________________________________________________
conv2d_244 (Conv2D)             (None, 14, 14, 128)  139264      block17_17_ac[0][0]              
__________________________________________________________________________________________________
batch_normalization_244 (BatchN (None, 14, 14, 128)  384         conv2d_244[0][0]                 
__________________________________________________________________________________________________
activation_289 (Activation)     (None, 14, 14, 128)  0           batch_normalization_244[0][0]    
__________________________________________________________________________________________________
conv2d_245 (Conv2D)             (None, 14, 14, 160)  143360      activation_289[0][0]             
__________________________________________________________________________________________________
batch_normalization_245 (BatchN (None, 14, 14, 160)  480         conv2d_245[0][0]                 
__________________________________________________________________________________________________
activation_290 (Activation)     (None, 14, 14, 160)  0           batch_normalization_245[0][0]    
__________________________________________________________________________________________________
conv2d_243 (Conv2D)             (None, 14, 14, 192)  208896      block17_17_ac[0][0]              
__________________________________________________________________________________________________
conv2d_246 (Conv2D)             (None, 14, 14, 192)  215040      activation_290[0][0]             
__________________________________________________________________________________________________
batch_normalization_243 (BatchN (None, 14, 14, 192)  576         conv2d_243[0][0]                 
__________________________________________________________________________________________________
batch_normalization_246 (BatchN (None, 14, 14, 192)  576         conv2d_246[0][0]                 
__________________________________________________________________________________________________
activation_288 (Activation)     (None, 14, 14, 192)  0           batch_normalization_243[0][0]    
__________________________________________________________________________________________________
activation_291 (Activation)     (None, 14, 14, 192)  0           batch_normalization_246[0][0]    
__________________________________________________________________________________________________
block17_18_mixed (Concatenate)  (None, 14, 14, 384)  0           activation_288[0][0]             
                                                                 activation_291[0][0]             
__________________________________________________________________________________________________
block17_18_conv (Conv2D)        (None, 14, 14, 1088) 418880      block17_18_mixed[0][0]           
__________________________________________________________________________________________________
block17_18 (Lambda)             (None, 14, 14, 1088) 0           block17_17_ac[0][0]              
                                                                 block17_18_conv[0][0]            
__________________________________________________________________________________________________
block17_18_ac (Activation)      (None, 14, 14, 1088) 0           block17_18[0][0]                 
__________________________________________________________________________________________________
conv2d_248 (Conv2D)             (None, 14, 14, 128)  139264      block17_18_ac[0][0]              
__________________________________________________________________________________________________
batch_normalization_248 (BatchN (None, 14, 14, 128)  384         conv2d_248[0][0]                 
__________________________________________________________________________________________________
activation_293 (Activation)     (None, 14, 14, 128)  0           batch_normalization_248[0][0]    
__________________________________________________________________________________________________
conv2d_249 (Conv2D)             (None, 14, 14, 160)  143360      activation_293[0][0]             
__________________________________________________________________________________________________
batch_normalization_249 (BatchN (None, 14, 14, 160)  480         conv2d_249[0][0]                 
__________________________________________________________________________________________________
activation_294 (Activation)     (None, 14, 14, 160)  0           batch_normalization_249[0][0]    
__________________________________________________________________________________________________
conv2d_247 (Conv2D)             (None, 14, 14, 192)  208896      block17_18_ac[0][0]              
__________________________________________________________________________________________________
conv2d_250 (Conv2D)             (None, 14, 14, 192)  215040      activation_294[0][0]             
__________________________________________________________________________________________________
batch_normalization_247 (BatchN (None, 14, 14, 192)  576         conv2d_247[0][0]                 
__________________________________________________________________________________________________
batch_normalization_250 (BatchN (None, 14, 14, 192)  576         conv2d_250[0][0]                 
__________________________________________________________________________________________________
activation_292 (Activation)     (None, 14, 14, 192)  0           batch_normalization_247[0][0]    
__________________________________________________________________________________________________
activation_295 (Activation)     (None, 14, 14, 192)  0           batch_normalization_250[0][0]    
__________________________________________________________________________________________________
block17_19_mixed (Concatenate)  (None, 14, 14, 384)  0           activation_292[0][0]             
                                                                 activation_295[0][0]             
__________________________________________________________________________________________________
block17_19_conv (Conv2D)        (None, 14, 14, 1088) 418880      block17_19_mixed[0][0]           
__________________________________________________________________________________________________
block17_19 (Lambda)             (None, 14, 14, 1088) 0           block17_18_ac[0][0]              
                                                                 block17_19_conv[0][0]            
__________________________________________________________________________________________________
block17_19_ac (Activation)      (None, 14, 14, 1088) 0           block17_19[0][0]                 
__________________________________________________________________________________________________
conv2d_252 (Conv2D)             (None, 14, 14, 128)  139264      block17_19_ac[0][0]              
__________________________________________________________________________________________________
batch_normalization_252 (BatchN (None, 14, 14, 128)  384         conv2d_252[0][0]                 
__________________________________________________________________________________________________
activation_297 (Activation)     (None, 14, 14, 128)  0           batch_normalization_252[0][0]    
__________________________________________________________________________________________________
conv2d_253 (Conv2D)             (None, 14, 14, 160)  143360      activation_297[0][0]             
__________________________________________________________________________________________________
batch_normalization_253 (BatchN (None, 14, 14, 160)  480         conv2d_253[0][0]                 
__________________________________________________________________________________________________
activation_298 (Activation)     (None, 14, 14, 160)  0           batch_normalization_253[0][0]    
__________________________________________________________________________________________________
conv2d_251 (Conv2D)             (None, 14, 14, 192)  208896      block17_19_ac[0][0]              
__________________________________________________________________________________________________
conv2d_254 (Conv2D)             (None, 14, 14, 192)  215040      activation_298[0][0]             
__________________________________________________________________________________________________
batch_normalization_251 (BatchN (None, 14, 14, 192)  576         conv2d_251[0][0]                 
__________________________________________________________________________________________________
batch_normalization_254 (BatchN (None, 14, 14, 192)  576         conv2d_254[0][0]                 
__________________________________________________________________________________________________
activation_296 (Activation)     (None, 14, 14, 192)  0           batch_normalization_251[0][0]    
__________________________________________________________________________________________________
activation_299 (Activation)     (None, 14, 14, 192)  0           batch_normalization_254[0][0]    
__________________________________________________________________________________________________
block17_20_mixed (Concatenate)  (None, 14, 14, 384)  0           activation_296[0][0]             
                                                                 activation_299[0][0]             
__________________________________________________________________________________________________
block17_20_conv (Conv2D)        (None, 14, 14, 1088) 418880      block17_20_mixed[0][0]           
__________________________________________________________________________________________________
block17_20 (Lambda)             (None, 14, 14, 1088) 0           block17_19_ac[0][0]              
                                                                 block17_20_conv[0][0]            
__________________________________________________________________________________________________
block17_20_ac (Activation)      (None, 14, 14, 1088) 0           block17_20[0][0]                 
__________________________________________________________________________________________________
conv2d_259 (Conv2D)             (None, 14, 14, 256)  278528      block17_20_ac[0][0]              
__________________________________________________________________________________________________
batch_normalization_259 (BatchN (None, 14, 14, 256)  768         conv2d_259[0][0]                 
__________________________________________________________________________________________________
activation_304 (Activation)     (None, 14, 14, 256)  0           batch_normalization_259[0][0]    
__________________________________________________________________________________________________
conv2d_255 (Conv2D)             (None, 14, 14, 256)  278528      block17_20_ac[0][0]              
__________________________________________________________________________________________________
conv2d_257 (Conv2D)             (None, 14, 14, 256)  278528      block17_20_ac[0][0]              
__________________________________________________________________________________________________
conv2d_260 (Conv2D)             (None, 14, 14, 288)  663552      activation_304[0][0]             
__________________________________________________________________________________________________
batch_normalization_255 (BatchN (None, 14, 14, 256)  768         conv2d_255[0][0]                 
__________________________________________________________________________________________________
batch_normalization_257 (BatchN (None, 14, 14, 256)  768         conv2d_257[0][0]                 
__________________________________________________________________________________________________
batch_normalization_260 (BatchN (None, 14, 14, 288)  864         conv2d_260[0][0]                 
__________________________________________________________________________________________________
activation_300 (Activation)     (None, 14, 14, 256)  0           batch_normalization_255[0][0]    
__________________________________________________________________________________________________
activation_302 (Activation)     (None, 14, 14, 256)  0           batch_normalization_257[0][0]    
__________________________________________________________________________________________________
activation_305 (Activation)     (None, 14, 14, 288)  0           batch_normalization_260[0][0]    
__________________________________________________________________________________________________
conv2d_256 (Conv2D)             (None, 6, 6, 384)    884736      activation_300[0][0]             
__________________________________________________________________________________________________
conv2d_258 (Conv2D)             (None, 6, 6, 288)    663552      activation_302[0][0]             
__________________________________________________________________________________________________
conv2d_261 (Conv2D)             (None, 6, 6, 320)    829440      activation_305[0][0]             
__________________________________________________________________________________________________
batch_normalization_256 (BatchN (None, 6, 6, 384)    1152        conv2d_256[0][0]                 
__________________________________________________________________________________________________
batch_normalization_258 (BatchN (None, 6, 6, 288)    864         conv2d_258[0][0]                 
__________________________________________________________________________________________________
batch_normalization_261 (BatchN (None, 6, 6, 320)    960         conv2d_261[0][0]                 
__________________________________________________________________________________________________
activation_301 (Activation)     (None, 6, 6, 384)    0           batch_normalization_256[0][0]    
__________________________________________________________________________________________________
activation_303 (Activation)     (None, 6, 6, 288)    0           batch_normalization_258[0][0]    
__________________________________________________________________________________________________
activation_306 (Activation)     (None, 6, 6, 320)    0           batch_normalization_261[0][0]    
__________________________________________________________________________________________________
max_pooling2d_9 (MaxPooling2D)  (None, 6, 6, 1088)   0           block17_20_ac[0][0]              
__________________________________________________________________________________________________
mixed_7a (Concatenate)          (None, 6, 6, 2080)   0           activation_301[0][0]             
                                                                 activation_303[0][0]             
                                                                 activation_306[0][0]             
                                                                 max_pooling2d_9[0][0]            
__________________________________________________________________________________________________
conv2d_263 (Conv2D)             (None, 6, 6, 192)    399360      mixed_7a[0][0]                   
__________________________________________________________________________________________________
batch_normalization_263 (BatchN (None, 6, 6, 192)    576         conv2d_263[0][0]                 
__________________________________________________________________________________________________
activation_308 (Activation)     (None, 6, 6, 192)    0           batch_normalization_263[0][0]    
__________________________________________________________________________________________________
conv2d_264 (Conv2D)             (None, 6, 6, 224)    129024      activation_308[0][0]             
__________________________________________________________________________________________________
batch_normalization_264 (BatchN (None, 6, 6, 224)    672         conv2d_264[0][0]                 
__________________________________________________________________________________________________
activation_309 (Activation)     (None, 6, 6, 224)    0           batch_normalization_264[0][0]    
__________________________________________________________________________________________________
conv2d_262 (Conv2D)             (None, 6, 6, 192)    399360      mixed_7a[0][0]                   
__________________________________________________________________________________________________
conv2d_265 (Conv2D)             (None, 6, 6, 256)    172032      activation_309[0][0]             
__________________________________________________________________________________________________
batch_normalization_262 (BatchN (None, 6, 6, 192)    576         conv2d_262[0][0]                 
__________________________________________________________________________________________________
batch_normalization_265 (BatchN (None, 6, 6, 256)    768         conv2d_265[0][0]                 
__________________________________________________________________________________________________
activation_307 (Activation)     (None, 6, 6, 192)    0           batch_normalization_262[0][0]    
__________________________________________________________________________________________________
activation_310 (Activation)     (None, 6, 6, 256)    0           batch_normalization_265[0][0]    
__________________________________________________________________________________________________
block8_1_mixed (Concatenate)    (None, 6, 6, 448)    0           activation_307[0][0]             
                                                                 activation_310[0][0]             
__________________________________________________________________________________________________
block8_1_conv (Conv2D)          (None, 6, 6, 2080)   933920      block8_1_mixed[0][0]             
__________________________________________________________________________________________________
block8_1 (Lambda)               (None, 6, 6, 2080)   0           mixed_7a[0][0]                   
                                                                 block8_1_conv[0][0]              
__________________________________________________________________________________________________
block8_1_ac (Activation)        (None, 6, 6, 2080)   0           block8_1[0][0]                   
__________________________________________________________________________________________________
conv2d_267 (Conv2D)             (None, 6, 6, 192)    399360      block8_1_ac[0][0]                
__________________________________________________________________________________________________
batch_normalization_267 (BatchN (None, 6, 6, 192)    576         conv2d_267[0][0]                 
__________________________________________________________________________________________________
activation_312 (Activation)     (None, 6, 6, 192)    0           batch_normalization_267[0][0]    
__________________________________________________________________________________________________
conv2d_268 (Conv2D)             (None, 6, 6, 224)    129024      activation_312[0][0]             
__________________________________________________________________________________________________
batch_normalization_268 (BatchN (None, 6, 6, 224)    672         conv2d_268[0][0]                 
__________________________________________________________________________________________________
activation_313 (Activation)     (None, 6, 6, 224)    0           batch_normalization_268[0][0]    
__________________________________________________________________________________________________
conv2d_266 (Conv2D)             (None, 6, 6, 192)    399360      block8_1_ac[0][0]                
__________________________________________________________________________________________________
conv2d_269 (Conv2D)             (None, 6, 6, 256)    172032      activation_313[0][0]             
__________________________________________________________________________________________________
batch_normalization_266 (BatchN (None, 6, 6, 192)    576         conv2d_266[0][0]                 
__________________________________________________________________________________________________
batch_normalization_269 (BatchN (None, 6, 6, 256)    768         conv2d_269[0][0]                 
__________________________________________________________________________________________________
activation_311 (Activation)     (None, 6, 6, 192)    0           batch_normalization_266[0][0]    
__________________________________________________________________________________________________
activation_314 (Activation)     (None, 6, 6, 256)    0           batch_normalization_269[0][0]    
__________________________________________________________________________________________________
block8_2_mixed (Concatenate)    (None, 6, 6, 448)    0           activation_311[0][0]             
                                                                 activation_314[0][0]             
__________________________________________________________________________________________________
block8_2_conv (Conv2D)          (None, 6, 6, 2080)   933920      block8_2_mixed[0][0]             
__________________________________________________________________________________________________
block8_2 (Lambda)               (None, 6, 6, 2080)   0           block8_1_ac[0][0]                
                                                                 block8_2_conv[0][0]              
__________________________________________________________________________________________________
block8_2_ac (Activation)        (None, 6, 6, 2080)   0           block8_2[0][0]                   
__________________________________________________________________________________________________
conv2d_271 (Conv2D)             (None, 6, 6, 192)    399360      block8_2_ac[0][0]                
__________________________________________________________________________________________________
batch_normalization_271 (BatchN (None, 6, 6, 192)    576         conv2d_271[0][0]                 
__________________________________________________________________________________________________
activation_316 (Activation)     (None, 6, 6, 192)    0           batch_normalization_271[0][0]    
__________________________________________________________________________________________________
conv2d_272 (Conv2D)             (None, 6, 6, 224)    129024      activation_316[0][0]             
__________________________________________________________________________________________________
batch_normalization_272 (BatchN (None, 6, 6, 224)    672         conv2d_272[0][0]                 
__________________________________________________________________________________________________
activation_317 (Activation)     (None, 6, 6, 224)    0           batch_normalization_272[0][0]    
__________________________________________________________________________________________________
conv2d_270 (Conv2D)             (None, 6, 6, 192)    399360      block8_2_ac[0][0]                
__________________________________________________________________________________________________
conv2d_273 (Conv2D)             (None, 6, 6, 256)    172032      activation_317[0][0]             
__________________________________________________________________________________________________
batch_normalization_270 (BatchN (None, 6, 6, 192)    576         conv2d_270[0][0]                 
__________________________________________________________________________________________________
batch_normalization_273 (BatchN (None, 6, 6, 256)    768         conv2d_273[0][0]                 
__________________________________________________________________________________________________
activation_315 (Activation)     (None, 6, 6, 192)    0           batch_normalization_270[0][0]    
__________________________________________________________________________________________________
activation_318 (Activation)     (None, 6, 6, 256)    0           batch_normalization_273[0][0]    
__________________________________________________________________________________________________
block8_3_mixed (Concatenate)    (None, 6, 6, 448)    0           activation_315[0][0]             
                                                                 activation_318[0][0]             
__________________________________________________________________________________________________
block8_3_conv (Conv2D)          (None, 6, 6, 2080)   933920      block8_3_mixed[0][0]             
__________________________________________________________________________________________________
block8_3 (Lambda)               (None, 6, 6, 2080)   0           block8_2_ac[0][0]                
                                                                 block8_3_conv[0][0]              
__________________________________________________________________________________________________
block8_3_ac (Activation)        (None, 6, 6, 2080)   0           block8_3[0][0]                   
__________________________________________________________________________________________________
conv2d_275 (Conv2D)             (None, 6, 6, 192)    399360      block8_3_ac[0][0]                
__________________________________________________________________________________________________
batch_normalization_275 (BatchN (None, 6, 6, 192)    576         conv2d_275[0][0]                 
__________________________________________________________________________________________________
activation_320 (Activation)     (None, 6, 6, 192)    0           batch_normalization_275[0][0]    
__________________________________________________________________________________________________
conv2d_276 (Conv2D)             (None, 6, 6, 224)    129024      activation_320[0][0]             
__________________________________________________________________________________________________
batch_normalization_276 (BatchN (None, 6, 6, 224)    672         conv2d_276[0][0]                 
__________________________________________________________________________________________________
activation_321 (Activation)     (None, 6, 6, 224)    0           batch_normalization_276[0][0]    
__________________________________________________________________________________________________
conv2d_274 (Conv2D)             (None, 6, 6, 192)    399360      block8_3_ac[0][0]                
__________________________________________________________________________________________________
conv2d_277 (Conv2D)             (None, 6, 6, 256)    172032      activation_321[0][0]             
__________________________________________________________________________________________________
batch_normalization_274 (BatchN (None, 6, 6, 192)    576         conv2d_274[0][0]                 
__________________________________________________________________________________________________
batch_normalization_277 (BatchN (None, 6, 6, 256)    768         conv2d_277[0][0]                 
__________________________________________________________________________________________________
activation_319 (Activation)     (None, 6, 6, 192)    0           batch_normalization_274[0][0]    
__________________________________________________________________________________________________
activation_322 (Activation)     (None, 6, 6, 256)    0           batch_normalization_277[0][0]    
__________________________________________________________________________________________________
block8_4_mixed (Concatenate)    (None, 6, 6, 448)    0           activation_319[0][0]             
                                                                 activation_322[0][0]             
__________________________________________________________________________________________________
block8_4_conv (Conv2D)          (None, 6, 6, 2080)   933920      block8_4_mixed[0][0]             
__________________________________________________________________________________________________
block8_4 (Lambda)               (None, 6, 6, 2080)   0           block8_3_ac[0][0]                
                                                                 block8_4_conv[0][0]              
__________________________________________________________________________________________________
block8_4_ac (Activation)        (None, 6, 6, 2080)   0           block8_4[0][0]                   
__________________________________________________________________________________________________
conv2d_279 (Conv2D)             (None, 6, 6, 192)    399360      block8_4_ac[0][0]                
__________________________________________________________________________________________________
batch_normalization_279 (BatchN (None, 6, 6, 192)    576         conv2d_279[0][0]                 
__________________________________________________________________________________________________
activation_324 (Activation)     (None, 6, 6, 192)    0           batch_normalization_279[0][0]    
__________________________________________________________________________________________________
conv2d_280 (Conv2D)             (None, 6, 6, 224)    129024      activation_324[0][0]             
__________________________________________________________________________________________________
batch_normalization_280 (BatchN (None, 6, 6, 224)    672         conv2d_280[0][0]                 
__________________________________________________________________________________________________
activation_325 (Activation)     (None, 6, 6, 224)    0           batch_normalization_280[0][0]    
__________________________________________________________________________________________________
conv2d_278 (Conv2D)             (None, 6, 6, 192)    399360      block8_4_ac[0][0]                
__________________________________________________________________________________________________
conv2d_281 (Conv2D)             (None, 6, 6, 256)    172032      activation_325[0][0]             
__________________________________________________________________________________________________
batch_normalization_278 (BatchN (None, 6, 6, 192)    576         conv2d_278[0][0]                 
__________________________________________________________________________________________________
batch_normalization_281 (BatchN (None, 6, 6, 256)    768         conv2d_281[0][0]                 
__________________________________________________________________________________________________
activation_323 (Activation)     (None, 6, 6, 192)    0           batch_normalization_278[0][0]    
__________________________________________________________________________________________________
activation_326 (Activation)     (None, 6, 6, 256)    0           batch_normalization_281[0][0]    
__________________________________________________________________________________________________
block8_5_mixed (Concatenate)    (None, 6, 6, 448)    0           activation_323[0][0]             
                                                                 activation_326[0][0]             
__________________________________________________________________________________________________
block8_5_conv (Conv2D)          (None, 6, 6, 2080)   933920      block8_5_mixed[0][0]             
__________________________________________________________________________________________________
block8_5 (Lambda)               (None, 6, 6, 2080)   0           block8_4_ac[0][0]                
                                                                 block8_5_conv[0][0]              
__________________________________________________________________________________________________
block8_5_ac (Activation)        (None, 6, 6, 2080)   0           block8_5[0][0]                   
__________________________________________________________________________________________________
conv2d_283 (Conv2D)             (None, 6, 6, 192)    399360      block8_5_ac[0][0]                
__________________________________________________________________________________________________
batch_normalization_283 (BatchN (None, 6, 6, 192)    576         conv2d_283[0][0]                 
__________________________________________________________________________________________________
activation_328 (Activation)     (None, 6, 6, 192)    0           batch_normalization_283[0][0]    
__________________________________________________________________________________________________
conv2d_284 (Conv2D)             (None, 6, 6, 224)    129024      activation_328[0][0]             
__________________________________________________________________________________________________
batch_normalization_284 (BatchN (None, 6, 6, 224)    672         conv2d_284[0][0]                 
__________________________________________________________________________________________________
activation_329 (Activation)     (None, 6, 6, 224)    0           batch_normalization_284[0][0]    
__________________________________________________________________________________________________
conv2d_282 (Conv2D)             (None, 6, 6, 192)    399360      block8_5_ac[0][0]                
__________________________________________________________________________________________________
conv2d_285 (Conv2D)             (None, 6, 6, 256)    172032      activation_329[0][0]             
__________________________________________________________________________________________________
batch_normalization_282 (BatchN (None, 6, 6, 192)    576         conv2d_282[0][0]                 
__________________________________________________________________________________________________
batch_normalization_285 (BatchN (None, 6, 6, 256)    768         conv2d_285[0][0]                 
__________________________________________________________________________________________________
activation_327 (Activation)     (None, 6, 6, 192)    0           batch_normalization_282[0][0]    
__________________________________________________________________________________________________
activation_330 (Activation)     (None, 6, 6, 256)    0           batch_normalization_285[0][0]    
__________________________________________________________________________________________________
block8_6_mixed (Concatenate)    (None, 6, 6, 448)    0           activation_327[0][0]             
                                                                 activation_330[0][0]             
__________________________________________________________________________________________________
block8_6_conv (Conv2D)          (None, 6, 6, 2080)   933920      block8_6_mixed[0][0]             
__________________________________________________________________________________________________
block8_6 (Lambda)               (None, 6, 6, 2080)   0           block8_5_ac[0][0]                
                                                                 block8_6_conv[0][0]              
__________________________________________________________________________________________________
block8_6_ac (Activation)        (None, 6, 6, 2080)   0           block8_6[0][0]                   
__________________________________________________________________________________________________
conv2d_287 (Conv2D)             (None, 6, 6, 192)    399360      block8_6_ac[0][0]                
__________________________________________________________________________________________________
batch_normalization_287 (BatchN (None, 6, 6, 192)    576         conv2d_287[0][0]                 
__________________________________________________________________________________________________
activation_332 (Activation)     (None, 6, 6, 192)    0           batch_normalization_287[0][0]    
__________________________________________________________________________________________________
conv2d_288 (Conv2D)             (None, 6, 6, 224)    129024      activation_332[0][0]             
__________________________________________________________________________________________________
batch_normalization_288 (BatchN (None, 6, 6, 224)    672         conv2d_288[0][0]                 
__________________________________________________________________________________________________
activation_333 (Activation)     (None, 6, 6, 224)    0           batch_normalization_288[0][0]    
__________________________________________________________________________________________________
conv2d_286 (Conv2D)             (None, 6, 6, 192)    399360      block8_6_ac[0][0]                
__________________________________________________________________________________________________
conv2d_289 (Conv2D)             (None, 6, 6, 256)    172032      activation_333[0][0]             
__________________________________________________________________________________________________
batch_normalization_286 (BatchN (None, 6, 6, 192)    576         conv2d_286[0][0]                 
__________________________________________________________________________________________________
batch_normalization_289 (BatchN (None, 6, 6, 256)    768         conv2d_289[0][0]                 
__________________________________________________________________________________________________
activation_331 (Activation)     (None, 6, 6, 192)    0           batch_normalization_286[0][0]    
__________________________________________________________________________________________________
activation_334 (Activation)     (None, 6, 6, 256)    0           batch_normalization_289[0][0]    
__________________________________________________________________________________________________
block8_7_mixed (Concatenate)    (None, 6, 6, 448)    0           activation_331[0][0]             
                                                                 activation_334[0][0]             
__________________________________________________________________________________________________
block8_7_conv (Conv2D)          (None, 6, 6, 2080)   933920      block8_7_mixed[0][0]             
__________________________________________________________________________________________________
block8_7 (Lambda)               (None, 6, 6, 2080)   0           block8_6_ac[0][0]                
                                                                 block8_7_conv[0][0]              
__________________________________________________________________________________________________
block8_7_ac (Activation)        (None, 6, 6, 2080)   0           block8_7[0][0]                   
__________________________________________________________________________________________________
conv2d_291 (Conv2D)             (None, 6, 6, 192)    399360      block8_7_ac[0][0]                
__________________________________________________________________________________________________
batch_normalization_291 (BatchN (None, 6, 6, 192)    576         conv2d_291[0][0]                 
__________________________________________________________________________________________________
activation_336 (Activation)     (None, 6, 6, 192)    0           batch_normalization_291[0][0]    
__________________________________________________________________________________________________
conv2d_292 (Conv2D)             (None, 6, 6, 224)    129024      activation_336[0][0]             
__________________________________________________________________________________________________
batch_normalization_292 (BatchN (None, 6, 6, 224)    672         conv2d_292[0][0]                 
__________________________________________________________________________________________________
activation_337 (Activation)     (None, 6, 6, 224)    0           batch_normalization_292[0][0]    
__________________________________________________________________________________________________
conv2d_290 (Conv2D)             (None, 6, 6, 192)    399360      block8_7_ac[0][0]                
__________________________________________________________________________________________________
conv2d_293 (Conv2D)             (None, 6, 6, 256)    172032      activation_337[0][0]             
__________________________________________________________________________________________________
batch_normalization_290 (BatchN (None, 6, 6, 192)    576         conv2d_290[0][0]                 
__________________________________________________________________________________________________
batch_normalization_293 (BatchN (None, 6, 6, 256)    768         conv2d_293[0][0]                 
__________________________________________________________________________________________________
activation_335 (Activation)     (None, 6, 6, 192)    0           batch_normalization_290[0][0]    
__________________________________________________________________________________________________
activation_338 (Activation)     (None, 6, 6, 256)    0           batch_normalization_293[0][0]    
__________________________________________________________________________________________________
block8_8_mixed (Concatenate)    (None, 6, 6, 448)    0           activation_335[0][0]             
                                                                 activation_338[0][0]             
__________________________________________________________________________________________________
block8_8_conv (Conv2D)          (None, 6, 6, 2080)   933920      block8_8_mixed[0][0]             
__________________________________________________________________________________________________
block8_8 (Lambda)               (None, 6, 6, 2080)   0           block8_7_ac[0][0]                
                                                                 block8_8_conv[0][0]              
__________________________________________________________________________________________________
block8_8_ac (Activation)        (None, 6, 6, 2080)   0           block8_8[0][0]                   
__________________________________________________________________________________________________
conv2d_295 (Conv2D)             (None, 6, 6, 192)    399360      block8_8_ac[0][0]                
__________________________________________________________________________________________________
batch_normalization_295 (BatchN (None, 6, 6, 192)    576         conv2d_295[0][0]                 
__________________________________________________________________________________________________
activation_340 (Activation)     (None, 6, 6, 192)    0           batch_normalization_295[0][0]    
__________________________________________________________________________________________________
conv2d_296 (Conv2D)             (None, 6, 6, 224)    129024      activation_340[0][0]             
__________________________________________________________________________________________________
batch_normalization_296 (BatchN (None, 6, 6, 224)    672         conv2d_296[0][0]                 
__________________________________________________________________________________________________
activation_341 (Activation)     (None, 6, 6, 224)    0           batch_normalization_296[0][0]    
__________________________________________________________________________________________________
conv2d_294 (Conv2D)             (None, 6, 6, 192)    399360      block8_8_ac[0][0]                
__________________________________________________________________________________________________
conv2d_297 (Conv2D)             (None, 6, 6, 256)    172032      activation_341[0][0]             
__________________________________________________________________________________________________
batch_normalization_294 (BatchN (None, 6, 6, 192)    576         conv2d_294[0][0]                 
__________________________________________________________________________________________________
batch_normalization_297 (BatchN (None, 6, 6, 256)    768         conv2d_297[0][0]                 
__________________________________________________________________________________________________
activation_339 (Activation)     (None, 6, 6, 192)    0           batch_normalization_294[0][0]    
__________________________________________________________________________________________________
activation_342 (Activation)     (None, 6, 6, 256)    0           batch_normalization_297[0][0]    
__________________________________________________________________________________________________
block8_9_mixed (Concatenate)    (None, 6, 6, 448)    0           activation_339[0][0]             
                                                                 activation_342[0][0]             
__________________________________________________________________________________________________
block8_9_conv (Conv2D)          (None, 6, 6, 2080)   933920      block8_9_mixed[0][0]             
__________________________________________________________________________________________________
block8_9 (Lambda)               (None, 6, 6, 2080)   0           block8_8_ac[0][0]                
                                                                 block8_9_conv[0][0]              
__________________________________________________________________________________________________
block8_9_ac (Activation)        (None, 6, 6, 2080)   0           block8_9[0][0]                   
__________________________________________________________________________________________________
conv2d_299 (Conv2D)             (None, 6, 6, 192)    399360      block8_9_ac[0][0]                
__________________________________________________________________________________________________
batch_normalization_299 (BatchN (None, 6, 6, 192)    576         conv2d_299[0][0]                 
__________________________________________________________________________________________________
activation_344 (Activation)     (None, 6, 6, 192)    0           batch_normalization_299[0][0]    
__________________________________________________________________________________________________
conv2d_300 (Conv2D)             (None, 6, 6, 224)    129024      activation_344[0][0]             
__________________________________________________________________________________________________
batch_normalization_300 (BatchN (None, 6, 6, 224)    672         conv2d_300[0][0]                 
__________________________________________________________________________________________________
activation_345 (Activation)     (None, 6, 6, 224)    0           batch_normalization_300[0][0]    
__________________________________________________________________________________________________
conv2d_298 (Conv2D)             (None, 6, 6, 192)    399360      block8_9_ac[0][0]                
__________________________________________________________________________________________________
conv2d_301 (Conv2D)             (None, 6, 6, 256)    172032      activation_345[0][0]             
__________________________________________________________________________________________________
batch_normalization_298 (BatchN (None, 6, 6, 192)    576         conv2d_298[0][0]                 
__________________________________________________________________________________________________
batch_normalization_301 (BatchN (None, 6, 6, 256)    768         conv2d_301[0][0]                 
__________________________________________________________________________________________________
activation_343 (Activation)     (None, 6, 6, 192)    0           batch_normalization_298[0][0]    
__________________________________________________________________________________________________
activation_346 (Activation)     (None, 6, 6, 256)    0           batch_normalization_301[0][0]    
__________________________________________________________________________________________________
block8_10_mixed (Concatenate)   (None, 6, 6, 448)    0           activation_343[0][0]             
                                                                 activation_346[0][0]             
__________________________________________________________________________________________________
block8_10_conv (Conv2D)         (None, 6, 6, 2080)   933920      block8_10_mixed[0][0]            
__________________________________________________________________________________________________
block8_10 (Lambda)              (None, 6, 6, 2080)   0           block8_9_ac[0][0]                
                                                                 block8_10_conv[0][0]             
__________________________________________________________________________________________________
conv_7b (Conv2D)                (None, 6, 6, 1536)   3194880     block8_10[0][0]                  
__________________________________________________________________________________________________
conv_7b_bn (BatchNormalization) (None, 6, 6, 1536)   4608        conv_7b[0][0]                    
__________________________________________________________________________________________________
conv_7b_ac (Activation)         (None, 6, 6, 1536)   0           conv_7b_bn[0][0]                 
__________________________________________________________________________________________________
flatten_6 (Flatten)             (None, 55296)        0           conv_7b_ac[0][0]                 
__________________________________________________________________________________________________
dense_16 (Dense)                (None, 1024)         56624128    flatten_6[0][0]                  
__________________________________________________________________________________________________
dropout_11 (Dropout)            (None, 1024)         0           dense_16[0][0]                   
__________________________________________________________________________________________________
dense_17 (Dense)                (None, 1024)         1049600     dropout_11[0][0]                 
__________________________________________________________________________________________________
dropout_12 (Dropout)            (None, 1024)         0           dense_17[0][0]                   
__________________________________________________________________________________________________
dense_18 (Dense)                (None, 2)            2050        dropout_12[0][0]                 
==================================================================================================
Total params: 112,012,514
Trainable params: 57,675,778
Non-trainable params: 54,336,736
__________________________________________________________________________________________________
